Pytorch-LeNet/LeNet.pt (torch, 251277 bytes, 10 tensors)

weight f4 [6, 1, 5, 5]
000000 fb 59 3b be 40 88 8e bd 67 c2 c1 bc 4d 33 da bd
       -0.18296044 -0.069595814 -0.023652269 -0.10654316
000010 50 c1 a4 bd 70 37 d9 bd b3 2e 9d bd 00 6b 8f bb
       -0.08044684 -0.10606277 -0.07674923 -0.004376769
000020 5a 72 d0 bd 9a f2 ce 3c 40 86 a1 bc 3a 5a 3a be
       -0.10178061 0.025262166 -0.019717336 -0.18198481
000030 33 a3 2b 3d 80 49 c3 3d 80 81 92 bd fd fc 18 be
       0.041903686 0.095355034 -0.071536064 -0.14940257
000040 3a b0 1d bd d3 a5 1d 3e 60 fe d1 bd 4d 17 b4 3c
       -0.03849814 0.15395288 -0.10253596 0.021983767
000050 0d 5b 6e 3d ed aa d0 3d 67 7d a9 bd 7d 72 1e 3e
       0.0581923 0.101888515 -0.08275872 0.15473361
000060 0a e2 07 be 65 d8 36 be a7 de 45 bd a0 62 23 bd
       -0.13269821 -0.17855985 -0.04830804 -0.039888978
000070 40 46 d8 bc 0d 80 01 be e0 13 bd bd 63 b9 8f bd
       -0.026400685 -0.12646504 -0.092323065 -0.070177816
000080 27 33 01 3e a3 63 94 bd c7 25 0d bd ad 71 81 bd
       0.1261717 -0.07245567 -0.034459855 -0.0632051
000090 7a 15 19 be 17 d0 db bd 1b 0a 4a 3e 4a f3 ac bd
       -0.14949599 -0.10733049 0.19730417 -0.08444841
0000a0 53 29 45 3d 05 ad 41 3e 77 5a ab bd 47 67 17 3d
       0.048135113 0.18913658 -0.08366864 0.036963727
0000b0 68 86 38 be 03 39 3f be f7 d2 00 be 67 14 cd 3c
       -0.18020022 -0.18674092 -0.12580477 0.025034143
0000c0 8a 35 84 bd d0 94 25 be 1f 50 16 3e b7 26 3f 3e
       -0.06455524 -0.16170049 0.14679001 0.18667112
0000d0 8d 97 f0 bc 9a 42 52 bc 5a 43 a1 bc 3d 08 4a be
       -0.02936914 -0.012833262 -0.019685436 -0.19729705
0000e0 bd c7 bf 3d 9d e5 11 be 6d 6b bf 3d 8a 61 44 3e
       0.09364269 -0.14247747 0.09346662 0.19177833
0000f0 e0 a6 07 bd e0 f1 67 bd dd f3 93 bd 9a 1b a4 bd
       -0.03311813 -0.056627154 -0.072242476 -0.08013077
000100 30 5d 91 3d f3 6c 01 3e d3 9f 46 bd c7 35 8a 3d
       0.07097852 0.12639217 -0.048492264 0.067485385
000110 fa b8 34 3d 0d 74 50 3d d5 a2 15 be 43 8c 31 3e
       0.04412172 0.050891925 -0.14612897 0.17338662
000120 df 87 26 be f8 77 12 3e e8 99 39 3e 8a 9e 91 bd
       -0.16262768 0.14303577 0.18125117 -0.07110317
000130 27 a0 90 bd a2 e1 2e 3e dd 5b e6 3d 50 2c ee 3d
       -0.07061797 0.1707826 0.1124799 0.11629546
000140 f0 88 4c be 08 74 17 be 7d 46 cb 3d 9b f4 27 be
       -0.19974113 -0.14790356 0.09925554 -0.16401903
000150 67 d9 7b bd 87 82 fc bd fd 5d c8 3d 6f 40 10 be
       -0.061486628 -0.123295836 0.09783552 -0.1408708
000160 fa 16 ed bd ea ae 84 bd 8d 00 b3 3d f3 9b 54 3d
       -0.11576648 -0.06478675 0.087403394 0.051906537
000170 82 52 17 be c0 08 8f 3c 73 18 ce bd 27 b4 f4 3d
       -0.14777568 0.017460227 -0.10063257 0.11948424
000180 80 31 dd 3d 23 d8 0a 3e 85 ac 48 be 40 c2 ce 3d
       0.10800457 0.13559012 -0.19597061 0.10095644
000190 e7 86 c2 bd 60 2c 66 bd b0 c7 c8 3d 5f 52 41 be
       -0.09498387 -0.056194663 0.09803712 -0.18879078
0001a0 8a 8c 37 be 53 ce 13 3e 35 e2 2f be 60 e4 61 3d
       -0.17924705 0.14434175 -0.17176135 0.055149436
0001b0 cb 3f 1e be c8 88 16 3e 3a 58 c7 bd d3 1e 16 be
       -0.15454023 0.14700615 -0.09733625 -0.14660196
0001c0 40 16 ed 3c 9a db 27 bb 8a a1 a3 bd c3 0f d2 bd
       0.028941274 -0.002561307 -0.079897955 -0.102569126
0001d0 6a b5 dd bd 97 27 d4 3d cd 56 47 bc 1b 76 3c be
       -0.108256176 0.10359114 -0.012166691 -0.18404429
0001e0 03 3e 16 be 75 cd 1a be 20 50 fa bd 8a 9d 01 3e
       -0.14672093 -0.15117438 -0.12222314 0.12657753
0001f0 70 d0 21 3e da eb 5a bd 18 b2 4a 3e 2a 4f b0 bd
       0.15802169 -0.05344758 0.197945 -0.08608849
000200 97 06 ff bd d5 88 47 3e da 2b 2d 3d e7 9f 7d 3c
       -0.12452429 0.19485791 0.04227815 0.015480018
000210 6d 96 2f 3d 62 2c 35 3e e7 e8 8c bc 53 0a 6f 3d
       0.042868067 0.17692712 -0.0172009 0.058359455
000220 9a 8f f4 3c 13 1e 9b bd d5 bc 20 3e 40 8a 3d be
       0.02985363 -0.075740956 0.15697034 -0.1850977
000230 33 ed b0 bc 33 63 42 bd 00 30 77 ba 1f b3 18 be
       -0.02159748 -0.047457885 -0.0009429455 -0.1491208
000240 67 fe e9 3d c0 44 a2 3c 4a 31 c0 3d c8 19 19 3e
       0.114254765 0.019808173 0.09384401 0.14951241
000250 13 6e 17 3e 1d 37 87 bd
       0.14788084 -0.06602309

bias f4 [6]
000000 03 74 04 3e ba 1a 67 3d 13 02 32 bd 40 6e 18 3d
       0.1293488 0.056421973 -0.04345901 0.037214518
000010 e0 11 68 3d 25 22 2e 3e
       0.056657672 0.17005213

weight f4 [16, 6, 5, 5]
000000 79 4a d8 bb 14 a3 0f 3d d5 1f 93 3d db f0 9a 3d
       -0.0066006747 0.035067633 0.07183806 0.07565471
000010 2d ce e2 bc c6 81 25 bd 40 24 7b 3a 64 69 9a bd
       -0.027686203 -0.040406965 0.0009580292 -0.07539633
000020 c1 0d 3d bd c0 74 5d bc 99 20 84 3d e2 98 70 bd
       -0.046155695 -0.013516605 0.0645153 -0.05873955
000030 d6 ff 15 3d a2 9d 41 bc 68 76 07 bb 91 af d4 3c
       0.036620937 -0.011817368 -0.002066994 0.025962623
000040 e7 ca 20 3d 25 71 28 bc 88 51 4e 3d 3a 76 2c bd
       0.039256003 -0.010280882 0.050370723 -0.042104937
000050 43 df 6f bd 32 08 80 3c f5 82 8e 3d 71 63 82 bd
       -0.05856253 0.015628908 0.06958572 -0.06366623
000060 86 f9 4d 3d 32 14 8f 3d f8 3b 23 bb a2 4d 86 bc
       0.050286792 0.06986274 -0.002490757 -0.01639444
000070 fa f1 42 bd d6 9f 87 3d 00 8c 6c 3d de 04 98 3d
       -0.047594048 0.06622283 0.057750702 0.07422803
000080 18 a3 34 3d f2 bd 81 bd 1f 7d 93 bd a4 60 28 3d
       0.04410085 -0.06335057 -0.07201599 0.04110779
000090 66 6d 12 bc 01 15 e6 bc d2 5e 52 3d e1 55 94 bd
       -0.008937215 -0.028086187 0.05135996 -0.072429426
0000a0 99 6b 2e bd f4 7b ef bc c0 33 5b bd 5b 24 83 bd
       -0.042583082 -0.02923391 -0.05351615 -0.06403419
0000b0 27 13 7f bc ea bf 0c bd 2c 01 94 3d a1 85 9f 3c
       -0.015568531 -0.03436271 0.07226786 0.019472899
0000c0 23 c0 96 3d b3 e9 16 bd e8 3d 52 3d 74 e1 9c 3d
       0.07360866 -0.036843967 0.05132857 0.07660189
0000d0 cc 93 47 bd 4e 70 10 3d 99 fc 96 bd 67 51 3e bd
       -0.048724934 0.035263352 -0.07372398 -0.04646435
0000e0 61 cb e2 3c 18 b4 07 bc d7 67 70 bc f0 91 6a bc
       0.02768487 -0.008282684 -0.014673195 -0.014317021
0000f0 89 6b 29 3d 8e 13 00 bd a0 b5 8d bd f3 09 53 bb
       0.04136232 -0.03126865 -0.06919408 -0.0032201975
000100 f3 18 9f 3d fb ce 58 bd 04 4d a4 3d a6 3f 75 3d
       0.077684306 -0.052931767 0.08022502 0.059875153
000110 f9 4d 73 3d 96 c5 96 bd 6f 62 89 3d 26 0c 9e bd
       0.059400532 -0.07361905 0.06708228 -0.07717161
000120 b4 38 22 3d ea b2 0e 3d f7 3a c8 3c 0b 74 dc bc
       0.039604858 0.034838594 0.02444218 -0.026910802
000130 de 0b e5 3c 1c 0a 45 bd 3b fa 7e bd c0 ec 1a bd
       0.02795976 -0.048105344 -0.062250357 -0.03782344
000140 80 ed 78 3d 21 c5 c6 3b 94 6c 5b bd 14 c3 99 3c
       0.060773373 0.00606598 -0.053570345 0.018769778
000150 cd 69 13 3d a6 fb 3c bd 89 97 33 3d ee 5a 21 3d
       0.03598957 -0.04613843 0.043845687 0.039393358
000160 f8 08 42 3d 8d 0c f3 3b 4b 29 0d 3d c1 cf 39 bd
       0.047371835 0.0074172677 0.03446321 -0.045364145
000170 1b 47 87 3d 62 0e 4c bd 91 7c 66 3d 7c 2b b4 bb
       0.06605359 -0.049818404 0.05627114 -0.005498348
000180 30 b5 a3 bd 95 99 3a bc f0 64 e1 3c 73 89 40 bb
       -0.07993543 -0.011389156 0.027513951 -0.00293788
000190 76 e6 37 bd 37 0b f7 3b 36 73 51 bd 79 70 67 3d
       -0.04489752 0.0075391787 -0.051135264 0.056503747
0001a0 dc 88 a5 3d 2b 12 a2 bd d9 15 a7 3c 9e bf f2 bc
       0.080827445 -0.079136215 0.02039616 -0.029632386
0001b0 19 ca 52 3c 0d 8a 24 bd 2f 10 9a 3d 57 05 8c 3d
       0.012865567 -0.040170718 0.07522618 0.06836956
0001c0 cd 14 70 3c d6 2e 54 3d 07 22 84 3d a9 13 44 3d
       0.014653397 0.05180248 0.06451803 0.047870312
0001d0 32 f7 20 bc e8 28 66 3d 39 39 f2 bc 07 08 7e 3d
       -0.009824561 0.056191355 -0.029568302 0.062019374
0001e0 4a 6e 95 3d 93 fa 92 bd d3 4f 85 3c d8 5c 80 3c
       0.072964266 -0.071766995 0.016273415 0.015669271
0001f0 df c6 55 bc 11 b6 a0 bd 9c 07 dc 3c 53 f4 2c bb
       -0.013047903 -0.078472264 0.026859097 -0.0026390746
000200 e8 9a 46 bd ec ac 9f 3b a5 cb 74 3d 0f 15 b3 3c
       -0.048487574 0.004872909 0.059764523 0.021860627
000210 50 6a c1 3a c3 c6 3d 3d 69 e4 40 bd bf 92 0a bd
       0.0014756415 0.046332132 -0.04709283 -0.033831354
000220 12 08 46 3d 8b 8f 89 bd f1 25 76 3d 24 a2 99 bd
       0.04834754 -0.06716832 0.060094777 -0.07501629
000230 9d 1a 9e 3c 53 dd 0f bd 76 62 8c bd 09 00 2e 3d
       0.0192998 -0.03512318 -0.068547174 0.042480502
000240 31 95 ca bc 9e ff 48 3c d9 48 49 bd c7 27 79 3d
       -0.024729343 0.012267975 -0.04914174 0.06082895
000250 58 44 51 bc e7 b5 6a bd 75 d0 15 3d 67 6c 67 3d
       -0.012772642 -0.05730238 0.036575753 0.056499865
000260 a3 87 41 bd 45 84 19 3c 67 95 18 3c 84 20 b5 3a
       -0.047248494 0.009369914 0.009312964 0.0013818895
000270 d5 5c 30 bb 76 06 92 bd 98 36 48 bc 4f b6 7f 3d
       -0.00269108 -0.071301386 -0.012220047 0.062429722
000280 7c eb 1d 3d d6 c1 17 bd 02 fb a4 3d be dd a5 39
       0.038554654 -0.03705009 0.080556884 0.00031636463
000290 36 d3 3c bb 71 71 a4 bd 6c d0 17 bb df 81 03 bc
       -0.0028812415 -0.0802945 -0.0023165 -0.008026569
0002a0 2c e6 de bc fa 9c 76 bd 04 76 50 3c 33 09 8b 3d
       -0.027209364 -0.0602083 0.01272345 0.06788864
0002b0 85 9c 76 bd 13 e4 1e 3d 6c 5e 02 3d ea a2 7d bb
       -0.060207862 0.038791727 0.03182833 -0.003870184
0002c0 db 7d 88 bd de 23 9e bd 8e f7 02 3c 6e 16 fb bc
       -0.0666463 -0.07721685 0.007993592 -0.030650344
0002d0 41 46 26 3d c2 4e 1d 3b 90 5b 4d bd ef 69 02 bc
       0.040594343 0.0024003242 -0.05013615 -0.007959827
0002e0 62 17 8c bd 4d a9 eb 3b c5 f2 0f bd 3e 83 31 bd
       -0.068403974 0.007191813 -0.035143632 -0.043338053
0002f0 98 ba 9e 3d cd e8 8f bd a7 98 16 bd 2e 6e 52 bd
       0.07750434 -0.07026825 -0.036766674 -0.051374607
000300 06 36 91 3d c9 bf b6 3b 99 b0 12 bd 0e e6 1e bd
       0.07090382 0.005577062 -0.035812948 -0.038793616
000310 1d 3b 59 bd 1a 5d 01 39 5a 34 8d bd c6 e4 66 bd
       -0.05303489 0.00012337082 -0.06894751 -0.05637052
000320 da bd 34 3d 80 01 f7 3b b3 a9 93 bd 0e 97 89 3d
       0.04412637 0.0075380206 -0.07210102 0.067182645
000330 14 ed 4f bd dc e6 f1 bc 90 df 65 3c 4c 78 15 39
       -0.050763205 -0.029529028 0.014030352 0.00014254561
000340 01 7a 1b bc a2 2d 9c bc 45 70 20 bd bb a9 cc 3c
       -0.009489537 -0.019064728 -0.03916957 0.024983278
000350 ef 3d 86 3b 5c 71 c6 3b 0d 16 07 3d bd 5b 8f bd
       0.0040967385 0.006055994 0.032980014 -0.069999196
000360 20 d0 2c bd ff 97 71 bd b2 a7 e0 3c e9 7d 46 3d
       -0.04219067 -0.058982845 0.027423713 0.04845992
000370 ab c4 56 bd 5e ff 9f bd d2 e3 65 3d db ac 2a 3c
       -0.05243365 -0.07812379 0.05612547 0.0104171885
000380 13 e2 7f bd 6d 66 53 bd 5b 74 2a 3d 1a d3 9c 3d
       -0.06247146 -0.051611353 0.04161487 0.07657452
000390 bc d9 41 3d 4c 8a 80 bd 40 dd 59 bc 0a ba 09 3d
       0.04732679 -0.06276378 -0.013297379 0.033624686
0003a0 5f 93 a6 3d 79 55 ce bc eb 71 26 3d bd 9a 97 bc
       0.081335776 -0.02518724 0.040635984 -0.018506402
0003b0 07 7f 0e 3c a7 1b 85 bd ae 70 44 bc ee 0d 7c 3b
       0.008697278 -0.06499415 -0.011989756 0.0038460451
0003c0 d1 e4 06 3d 61 1e db bc f5 44 71 bd 91 10 90 3d
       0.03293306 -0.026747884 -0.058903653 0.0703441
0003d0 f4 47 0e 3c eb 03 6e bd 5c d3 31 bc 26 11 78 3d
       0.008684147 -0.058109205 -0.010853615 0.06056323
0003e0 a4 d0 83 3c 79 e1 e1 3c 2a 4f 56 3d 0d 6d b4 bc
       0.016090699 0.027573334 0.05232159 -0.022024656
0003f0 7c 59 a3 3d 66 d1 3e 3c 1e 7f 42 3d 03 75 22 bd
       0.07976052 0.011646604 0.04748451 -0.039662372

bias f4 [16]
000000 c1 d5 b3 bc 48 2b 0d bb d5 53 bd bc 77 61 e4 bc
       -0.021952512 -0.002154069 -0.023111263 -0.027878506
000010 66 31 96 3c 38 6a da bc db 6d 14 3d 1b 3f 35 bd
       0.018334102 -0.026661977 0.03623758 -0.044249635
000020 85 5a 8a 3c e0 ab 51 3c 5f 04 81 3d db 68 9c 3d
       0.016888866 0.012797326 0.06299662 0.07637187
000030 03 49 a3 bc e5 bb 6e 3d 26 ac 9f bd 65 d3 82 bd
       -0.019932276 0.05828466 -0.077965066 -0.063879766

weight f4 [120, 400]
000000 47 b7 2f bd 40 0a e0 bb 0a b0 e4 bc e0 a2 d7 3c
       -0.042899396 -0.0068371594 -0.027915973 0.026322782
000010 e7 90 2b bb 50 38 dd 3c 00 29 98 3b f0 cc dc bc
       -0.0026178898 0.027004391 0.0046435595 -0.02695319
000020 67 12 92 3a 2d 51 03 3d 98 6e 3a 3d aa f8 39 3d
       0.00111444 0.032059837 0.045515627 0.04540316
000030 e7 44 46 bc d3 26 fd bc dd 73 e6 bc 23 2d b6 bc
       -0.012101389 -0.030902302 -0.02813142 -0.02223832
000040 40 f6 fc bc 2a c0 f0 bc 13 ec 3e 3d a8 42 04 bd
       -0.03087914 -0.029388506 0.046611857 -0.03229013
000050 dd af c9 3c 53 89 70 bc 0d 6d f6 bb 60 3d 2d 3c
       0.024619991 -0.014681178 -0.007520324 0.010573715
000060 93 31 2b bc c7 f8 11 bd e2 61 05 bd 52 4b 2e bd
       -0.010448831 -0.035637643 -0.03256405 -0.0425523
000070 3a 6e a0 3c e7 61 d9 3b a8 03 31 bd 30 42 de 3c
       0.01958381 0.0066339853 -0.043216377 0.02713117
000080 7f 9d 0a 3d cd 1c b0 3a 23 5d 3a bd dd 21 14 3d
       0.033841606 0.0013436318 -0.04549898 0.036165107
000090 af ca 3c 3d 30 e7 f9 bc 85 fd 15 3d d0 21 19 bd
       0.04609173 -0.030505747 0.03661873 -0.03738576
0000a0 2d a1 4f 3c 27 bf 0f 3d 48 40 35 3d 67 e2 cd b9
       0.012672705 0.035094406 0.044250757 -0.0003926933
0000b0 c0 a1 26 3d 9a 9c e6 3b ba b6 fc 3c b2 7c 0d bd
       0.0406816 0.0070377113 0.03084885 -0.034542747
0000c0 e0 4c 91 bc 5a fd 2b bc 53 73 c3 bc cd 59 9f bc
       -0.017736852 -0.010497415 -0.023858702 -0.019452
0000d0 6b 41 10 bd 30 11 80 3c 87 1c d8 3c ef 1b 20 3d
       -0.035218637 0.015633196 0.02638079 0.03908914
0000e0 52 bb 32 3d 8b 00 3b bd 0b fb 33 3d fa 59 64 3c
       0.043635674 -0.045654815 0.043940585 0.013937468
0000f0 b5 c6 10 3d ca aa 80 3c 7a 7a 8b bc 70 2c 9b 3c
       0.03534575 0.015706439 -0.017026175 0.018942088
000100 40 27 07 bd 23 03 31 bd 67 b3 bd bb 77 ba ad 3c
       -0.032996416 -0.043215882 -0.0057892087 0.021207077
000110 f0 69 18 bd a7 9f d9 3c 42 b2 38 3d 97 56 38 bd
       -0.037210405 0.026565386 0.045091875 -0.045004454
000120 e3 f5 ae bc e7 77 5f 3c 73 60 1a bd 1a fd c2 bb
       -0.021357482 0.013639427 -0.037689637 -0.005950582
000130 a3 56 b6 bc 9a ee 6b bc fd 09 15 bd b3 b7 bd bc
       -0.022258108 -0.014400149 -0.03638648 -0.023158884
000140 88 a2 03 3d 1a 01 32 3b ba 0d 8f 3c 8d 94 27 bd
       0.032137424 0.00271613 0.0174626 -0.040913153
000150 7a 25 ab 3c da f3 47 3c 37 7d 2a 3d f0 53 e6 bc
       0.020891894 0.012204135 0.04162332 -0.028116196
000160 5d 63 05 3d fd d2 f5 3c 9a 8c 12 bc 3d 37 a6 bc
       0.032565463 0.030007834 -0.008944655 -0.020290012
000170 9a 23 cf ba 93 bb 16 bd ad 41 3f bc 33 4f e5 bc
       -0.0015803457 -0.03679998 -0.011673373 -0.027991867
000180 c7 36 0a bc 67 50 cb ba 4d 6a f9 3b 50 ec da 3c
       -0.0084359115 -0.0015511633 0.007611549 0.02672401
000190 f3 5e db 3b 27 80 08 3d b3 44 16 bb 77 b5 38 3d
       0.0066946684 0.03332534 -0.0022929132 0.045094933
0001a0 67 9e 05 3a e5 6c 0e bd d7 42 fb 3c ed 03 0b 3c
       0.0005097151 -0.03477182 0.03067152 0.008484823
0001b0 1d c1 e0 3c 25 48 49 bd b3 ff 8e 3b c5 7b 31 3d
       0.027435834 -0.049141068 0.004363978 0.043330926
0001c0 80 98 27 bc a0 33 a9 3c 67 54 a7 ba a0 ef b7 3c
       -0.01022923 0.0206545 -0.0012766243 0.02245313
0001d0 67 b9 f7 bc 27 ff f8 bc 30 82 c1 bc d5 d8 43 3d
       -0.030239774 -0.030395104 -0.023621649 0.04781421
0001e0 f7 1e f9 3c 2d 51 01 3c bb 5c 4b bd 3a c1 25 bd
       0.030410273 0.007892889 -0.04964898 -0.04046748
0001f0 ea 09 84 bc 2a fa c4 bc 2d b2 1c bd 22 10 16 3d
       -0.016118009 -0.024045069 -0.03825586 0.03663648
000200 f3 25 4b bc 1a 62 b9 3c 87 73 ab bc 0a 01 e2 3c
       -0.0123991845 0.022629786 -0.020929111 0.027588386
000210 33 67 ea 3b f3 5b 08 3c e7 5b df 3c c0 28 64 3c
       0.0071534156 0.008322704 0.027265502 0.013925731
000220 58 8b 36 bd cd fa 0b bc 63 32 fd 3c 13 e5 4a 3c
       -0.044566482 -0.008543682 0.030907815 0.012383717
000230 87 ed 3b bd 67 08 1b 3a e0 65 bc bc 6a e5 c8 3c
       -0.04588082 0.0005914033 -0.022997797 0.024523456
000240 f7 76 e9 bc b3 eb 49 3c da 62 1a bd 90 a4 87 bc
       -0.02849911 0.0123242615 -0.03769193 -0.016557962
000250 73 f7 7f 3c e7 84 73 bb 2d 57 09 bc ca 01 46 3d
       0.015622961 -0.0037158073 -0.008382601 0.04834155
000260 c0 c0 e9 3c 67 f8 62 bc 00 c0 02 3c 13 3b e9 3c
       0.028534293 -0.013853169 0.007980347 0.028470552
000270 8a 74 0b bd 5a 0d 5a 3c 2f c9 3d 3d 47 69 84 bc
       -0.034046687 0.013308847 0.04633444 -0.016163481
000280 8a 5e df bc 3a 07 ad bc 7a 16 a7 3c bd f4 8f bc
       -0.02726676 -0.02112161 0.02039646 -0.017572755
000290 c2 28 0e 3d 83 0e 93 3c 2a 17 ad bc 3a 51 53 3c
       0.03470684 0.017951256 -0.02112921 0.012897784
0002a0 cd 4c c6 3a 00 46 d1 ba 6b d3 44 3d 97 46 af bc
       0.001512909 -0.0015966296 0.048053186 -0.021395965
0002b0 cd 0f a9 3b 8a dc 29 bd 3a d4 24 bd c0 3c fa bb
       0.0051593543 -0.041470088 -0.040241458 -0.0076366365
0002c0 97 db 4a bd f7 d7 c9 bc 67 b2 ff 3c 20 3c 29 3c
       -0.049525823 -0.024639113 0.031212999 0.010329276
0002d0 82 b4 2d bd 32 cc 0b 3d ad b9 2c bc ab 95 2b 3d
       -0.042408474 0.034130283 -0.010542315 0.04189078
0002e0 ed f1 37 3d ed 6d cb bc 47 a1 f8 bc fd f7 e9 bc
       0.044908453 -0.02483269 -0.03035034 -0.028560633
0002f0 af 2d 13 3d 4d 23 50 3b 80 51 a5 bb 33 e3 40 3b
       0.03593224 0.0031759322 -0.005045116 0.0029432296
000300 3a 13 23 bd 13 2c 7f 3c 87 ff a6 bc 95 79 30 bd
       -0.039813258 0.015574473 -0.020385517 -0.0430847
000310 07 a9 e8 bc 40 ea b8 bb 80 fc 8f 3b fa 1e 50 3c
       -0.028400911 -0.005643159 0.004394114 0.012702698
000320 3a 9f cf bc 0a 7b 48 bd 6b 63 44 bd 20 d2 1e bd
       -0.02534448 -0.048945464 -0.047946375 -0.03877461
000330 60 1f 0e 3d 13 ec 33 3c df 06 48 3d 00 36 3d 3d
       0.03469789 0.010981577 0.048834678 0.046194077
000340 33 93 e1 b9 c7 22 56 bc a8 bc 00 3d d8 8e 11 3d
       -0.00043025016 -0.013069815 0.031429917 0.035536617
000350 da dd cf bb 00 25 1c 3c ca 9c e4 bc bd 30 c3 bc
       -0.0063435854 0.009530306 -0.027906794 -0.023826951
000360 f0 22 2d 3d 07 c2 96 3c 75 b2 2d 3d ea a2 30 3d
       0.042269647 0.018403066 0.042406518 0.043124117
000370 68 56 0f 3d c0 5d a7 bc ca db ba bc 33 ae d7 bc
       0.034994513 -0.020430446 -0.022809882 -0.026328182
000380 ba 1f 6a bc 33 d7 29 bb 47 d6 6b bc 80 fe 39 3b
       -0.014289791 -0.0025915622 -0.014394349 0.0028380454
000390 30 b5 0f 3d 4a 0c 2c bd d0 9b 89 3c 3a f0 f9 bc
       0.035084903 -0.042003907 0.01679793 -0.030510057
0003a0 1f e4 0d bd 98 3e 24 bd 9b 5e 3b 3d 5d 39 8e 3c
       -0.03464138 -0.040098757 0.04574452 0.017361337
0003b0 07 38 81 3c 88 a5 4c 3d ab 7b 27 3d 33 0d b8 ba
       0.015773786 0.04996255 0.040889423 -0.001404202
0003c0 2b ea 00 3d 3b ca 45 3d 30 31 cd bc ed c6 db bc
       0.03147332 0.048288565 -0.025047868 -0.026828254
0003d0 1a 0d ed 3c 62 bf 32 bd 50 de c0 3c 95 9d 28 bd
       0.028936911 -0.043639548 0.023543507 -0.041165907
0003e0 27 92 22 3c 00 d3 60 bb 20 53 5b bc 03 2a 41 3d
       0.009922541 -0.0034305453 -0.013386518 0.047159206
0003f0 73 57 93 3c 03 17 e1 bc 8d f0 f4 bb da a4 e0 3b
       0.017986035 -0.027476793 -0.007474965 0.0068555893

bias f4 [120]
000000 9b 0b 3e 3d ad 51 1f bd ba 78 46 3c 4d 16 b0 3c
       0.046397787 -0.03889625 0.012113744 0.021495009
000010 60 87 9e bc cd 58 26 bd 28 5c 17 3d e7 52 1c bb
       -0.019351661 -0.04061203 0.03695312 -0.0023853125
000020 12 cb 38 3d c0 99 f8 bb e0 5a 38 3c 73 94 54 3c
       0.045115538 -0.007586688 0.011252135 0.012974846
000030 8d fc 8a 3b 3a fe 0c 3d 0a 17 94 bc 07 6a 79 bc
       0.004241532 0.034422137 -0.018077392 -0.015223033
000040 12 bf 39 3d fd 4f 92 bc c3 7e d2 3c 93 04 4c bd
       0.045348234 -0.017860407 0.02569521 -0.04980905
000050 27 11 6a 3c 6d b7 a9 3c 8d 7b 69 bc 50 f1 f5 3c
       0.014286316 0.020717347 -0.014250648 0.030022293
000060 97 67 1f 3d 00 fb cb 3b 6a 6c 24 3d 03 39 11 bd
       0.03891715 0.00622499 0.040142454 -0.03545476
000070 4d 1b a5 bb d7 52 a0 3c ab 9a 19 bd 5a 73 d7 3c
       -0.005038655 0.019570751 -0.03750102 0.026300121
000080 4f 89 09 3d cd 2b 70 3b ab 22 28 bd 9a 4c e4 3a
       0.033578213 0.00366472 -0.041048687 0.0017417849
000090 17 24 9f 3c 45 f5 33 bd 0a dc 07 bd 13 ce cf bc
       0.019426389 -0.04393508 -0.03316883 -0.025366819
0000a0 bb 49 3f 3d 87 a9 0c 3d 33 7a 29 3c ea 0b b8 3c
       0.046701174 0.03434136 0.010344076 0.022466619
0000b0 8d 8d e0 3b 23 d5 98 bc 8d 54 80 3c 57 6c cf bc
       0.0068528117 -0.018656319 0.015665317 -0.025320215
0000c0 da 6b 5f bc aa 97 fa bc ad 0d 45 bd c0 33 69 3c
       -0.013636554 -0.030589897 -0.048108745 0.01423353
0000d0 da 3b c7 bc 10 df af bc ad 44 74 bc 00 53 a5 3a
       -0.024320532 -0.02146867 -0.014908952 0.0012613237
0000e0 a7 51 c2 bb 1a 90 40 3c f3 43 fa 3c 27 94 74 bc
       -0.005930144 0.0117531065 0.030549979 -0.0149279
0000f0 00 af 2a 3c 9a 30 c0 ba dd 24 de bc 33 bb bf 3b
       0.0104177 -0.0014662922 -0.027117187 0.0058511733
000100 80 25 cc bb 15 7f 00 bd 6d de 2a 3d 0d 15 9e 3b
       -0.0062300563 -0.031371195 0.041716028 0.004824287
000110 4a 10 ea 3c 0d 83 80 bb c3 ba df 3c b7 2d 28 bd
       0.02857222 -0.0039218725 0.027310735 -0.041059222
000120 90 b6 21 3d e7 5f e3 3c c8 57 30 bd 43 a6 e0 bc
       0.039480746 0.02775569 -0.043052465 -0.02742303
000130 fa da 92 3c 17 33 90 3c 5a 47 db 3b 72 17 41 3d
       0.017926682 0.017602487 0.0066918554 0.0471415
000140 08 9c 2a 3d 33 82 33 bb d7 35 ba 3c ed 87 3e bd
       0.04165271 -0.0027390837 0.022730751 -0.046516348
000150 00 52 4f bb 1d 5a a6 3c 7d 69 8e bc 07 ee 31 3c
       -0.003163457 0.020306641 -0.017384285 0.010859973
000160 9a ed 36 bd c2 6b 39 bd 28 73 21 3d c0 ec 0c bd
       -0.04466019 -0.04526878 0.039416462 -0.03440547
000170 83 75 8a bc da fc 2d 3c 88 71 06 bd ed c3 45 3c
       -0.016901737 0.010619367 -0.032823116 0.012070638
000180 6d a9 62 3c 2d bc 43 bc 8a 26 32 3d 8b 21 1a bd
       0.01383434 -0.01194672 0.043493785 -0.037629645
000190 17 7e da 3c 4d c6 17 3c 80 c9 88 bb a0 79 04 bd
       0.026671452 0.009263587 -0.0041744113 -0.032342553
0001a0 93 e7 2a 3c 47 56 57 3c 90 05 98 bc 33 e6 28 bc
       0.010431188 0.013143129 -0.01855734 -0.01030879
0001b0 92 68 14 bd cd 34 18 b9 8d 6a a3 bb a5 bb 41 bd
       -0.03623254 -0.0001451552 -0.004987067 -0.047298092
0001c0 4a 5d d1 bc 00 dd 99 bc a0 33 f3 3c 9a fb 2f bc
       -0.025557179 -0.018782139 0.029687703 -0.010741139
0001d0 0d b8 26 3d 0a 7a b4 bc 07 22 6b bc c8 aa 14 bd
       0.04070287 -0.022030849 -0.0143513745 -0.036295682

weight f4 [84, 120]
000000 16 e7 d8 bc 13 0b 24 3c bc 39 b2 bd ae c0 16 bd
       -0.026477378 0.010012406 -0.08702418 -0.036804847
000010 73 95 9b 3d fc de 39 bc 29 f2 13 3d bc 22 1b 3d
       0.075968646 -0.0113446675 0.036119614 0.037874922
000020 f4 4a 05 3d 8d cb 15 bd 05 b4 54 bb 60 88 63 3d
       0.032542184 -0.036571074 -0.0032455933 0.05554998
000030 0d 99 c8 3c 7e 87 97 3c 12 12 dd bc 35 ed 2c bd
       0.024487043 0.018497225 -0.026986156 -0.042218406
000040 f4 a5 92 bd 86 bf 7f bd 0e a2 90 bd 11 a7 a9 bc
       -0.07160559 -0.06243851 -0.070621595 -0.020709546
000050 ce dc 27 3d ae 8e a8 3b dd d5 b7 3d cb e8 02 bd
       0.04098206 0.005143962 0.08976338 -0.03196029
000060 18 ad b8 bd 9a 36 f7 3b 4b 3e 7e 3d 95 63 8b bd
       -0.0901739 0.007544351 0.062071126 -0.06806103
000070 d9 1e 66 3a 9c 08 88 3c c0 66 4b bd 71 5d 7a bc
       0.00087784004 0.016605668 -0.049658537 -0.015281067
000080 22 75 c5 3c d5 c7 51 3b a1 4f 94 bd 68 9a 72 bd
       0.024103705 0.0032009978 -0.072417505 -0.059229285
000090 aa aa 6d 3d c6 21 9f bd c0 eb 70 3b 79 e2 37 3d
       0.058024086 -0.07770114 0.0036761612 0.044893716
0000a0 27 d1 db bc 69 41 7f bd 90 25 7d bd a7 94 69 bd
       -0.02683313 -0.06231824 -0.0618034 -0.05702653
0000b0 57 a1 95 3c b5 d3 42 bc 12 28 40 bd 72 85 0b bc
       0.01826541 -0.011891295 -0.046913214 -0.008515703
0000c0 a0 5c 58 ba 0e 73 3a 3c 2e e0 fe 3b 76 a8 f7 3c
       -0.00082535483 0.01137997 0.007778189 0.030231696
0000d0 35 15 72 3d 42 33 0d 3d c2 23 81 3c 62 35 ad 3c
       0.059102256 0.03447271 0.015764121 0.021143619
0000e0 8d 32 06 3d f9 42 b8 bd 97 f8 51 bd a8 36 4c 3c
       0.032763053 -0.08997149 -0.051262464 0.012464203
0000f0 d0 d0 bc bc 9f 9a 5f bd 0b 55 ae 3d 3f 81 75 3c
       -0.023048788 -0.054590818 0.085123144 0.014984428
000100 ca b4 85 bd 50 2a 8b bd 72 d3 4d 3d 4b 45 dc bc
       -0.065286234 -0.0679518 0.050250478 -0.02688851
000110 92 86 8f 3d 8d 5f 3a bd cc 1a 8b bd 94 83 50 3b
       0.07008089 -0.04550128 -0.067922205 0.0031816708
000120 14 45 33 3c 2e 99 5e 3d d0 1e 1c bd 83 1f a9 3d
       0.0109417625 0.054345302 -0.038115323 0.082579635
000130 21 35 9b bd 24 fc d9 3c c0 7d a1 3d b3 a9 76 3c
       -0.07578493 0.026609488 0.07885313 0.015055108
000140 0d 23 67 3d c7 49 9f bd 96 dc 15 3c f4 57 92 bd
       0.05642991 -0.07777744 0.00914683 -0.07145682
000150 fe 8f 05 3c 66 15 51 bd 0b 18 92 bd 44 68 b0 bd
       0.008152006 -0.051045798 -0.07133492 -0.08613637
000160 5c 1a ae bd 57 91 5e bc b9 c7 9c bd 2f 06 a3 3d
       -0.085011214 -0.013584456 -0.076552816 0.07960164
000170 03 07 a4 bc d6 95 22 bd 7d f7 b5 3d a9 1d ba 3d
       -0.020022875 -0.039693676 0.08885095 0.090876885
000180 52 26 8f 3d ca 08 5b bd d0 94 55 bc 08 13 41 3b
       0.06989731 -0.05347518 -0.013035968 0.0029460806
000190 d4 11 b9 3d 12 99 43 bc 15 25 b8 3d 60 e1 4c 3d
       0.090366036 -0.01193835 0.08991448 0.05001962
0001a0 d3 71 ec bb 9e 11 6c bd 54 04 0b bd 94 9e 42 3d
       -0.0072157173 -0.05763399 -0.033939674 0.047514513
0001b0 d8 3d 90 bd 57 2b b8 bc 40 f0 ea 3c fa a2 4e bd
       -0.07043046 -0.022481604 0.028679013 -0.050448395
0001c0 6e 45 f2 3c 46 56 88 bc 8c 75 ff 3c 42 91 1a bc
       0.029574122 -0.0166427 0.03118398 -0.009434046
0001d0 a9 03 56 3d dd 18 33 3d 9b 92 86 3c 57 df 19 bc
       0.052249584 0.043724883 0.016427329 -0.009391627
0001e0 d3 f3 a8 bd 78 d0 23 3c d3 a6 13 bd 77 17 a2 bd
       -0.08249631 0.009998433 -0.036047768 -0.07914632
0001f0 76 ee 91 bd 51 bb 9a 3d db 6c 24 3d 6e ce a1 b9
       -0.07125561 0.07555259 0.040142875 -0.00030862115
000200 5c 9a 0e 3d 31 d3 b7 bd 6f 00 f0 bc 27 65 a9 bd
       0.034815177 -0.089758284 -0.029297082 -0.082712464
000210 7c 0e 8e bd ac c9 a5 bc eb 7f 6d 3d 5a cf 75 3d
       -0.069363564 -0.020237766 0.05798332 0.0600122
000220 9c c3 f8 3c 8d 0e 91 3d 18 71 26 3d b5 c9 90 bd
       0.030366711 0.070828535 0.0406352 -0.070697226
000230 63 7e b0 3d b0 a3 c5 bc 1a 2c a5 bd 12 8e 9c bd
       0.08617856 -0.024125904 -0.08065052 -0.07644285
000240 d2 46 c0 bb f6 a2 bc bc 4f 5b 3e 3d d9 4c 59 3c
       -0.0058678174 -0.023026925 0.046473797 0.013262951
000250 ba fe aa 3d e7 5b 49 3c 2a b3 8a 3d 74 8c 05 3d
       0.083493665 0.012289978 0.06772454 0.03260465
000260 a6 f8 c0 bc 98 18 3f 3d f6 92 9b 3d ea 92 09 3d
       -0.023556065 0.046654314 0.0759639 0.033587374
000270 ab b3 23 bd 7e 16 ab bd cb 3f 6e bd 91 7b 85 bc
       -0.039966267 -0.083538994 -0.058166306 -0.016294273
000280 05 0a a8 3d 2e 54 5f bd e6 b8 1d bd dd 96 9d bd
       0.08205036 -0.05452364 -0.03850641 -0.076947905
000290 4f e0 86 3d 0c 29 97 bd 39 c4 11 3d 29 02 51 3d
       0.06585752 -0.07380876 0.035587523 0.05102745
0002a0 05 a4 14 3c 29 9d 3a 3d e8 9f 96 3d e6 55 b0 3d
       0.009072308 0.045560036 0.073547184 0.08610134
0002b0 6b c3 12 3d 5a a0 e7 bc 01 35 5e bb 7a 25 80 3b
       0.035830896 -0.028274704 -0.0033906105 0.0039107176
0002c0 b8 50 68 bc 2a fc 19 bd 14 a4 b0 bd 15 24 81 3d
       -0.014179401 -0.037593998 -0.086250454 0.0630571
0002d0 d7 15 49 bd a0 87 1a bb a4 90 eb bc cb 21 0f bd
       -0.049093094 -0.0023579374 -0.028755493 -0.034944337
0002e0 a9 b9 40 bc d9 f2 2d 3d 02 e0 65 bd c6 20 f0 bc
       -0.011763015 0.042467926 -0.056121834 -0.029312503
0002f0 f0 0c 05 bd 6c 8b 9b 3d ce 4a 79 3d 66 1c ef 3c
       -0.03248304 0.07594952 0.060862355 0.029188346
000300 fb da 84 bd 2f 2e 12 bc 32 7a b2 bb 7b 92 3b bd
       -0.0648708 -0.008922144 -0.0054466957 -0.04579399
000310 eb 8b 41 bd 2e dc a9 3d 6e 0e 5d 3d b5 3d 9e 3d
       -0.047252577 0.08293949 0.05396884 0.077266134
000320 59 f6 e4 3b e8 d3 8d 3d 2d b8 80 3c 59 6d a8 bd
       0.0069873747 0.069251835 0.015712822 -0.082239814
000330 37 c8 88 3d 89 3c 29 3d bf c9 ed bc 82 1c aa bd
       0.06678813 0.041317496 -0.029026864 -0.08306219
000340 56 3f 67 3d bf 70 0b 3d ec 88 b6 3d 12 ea 34 3d
       0.056456886 0.03404307 0.089128345 0.04416854
000350 ab bc 9a 3d ad db 95 3c a0 12 3b bc f3 d2 3a bb
       0.07555517 0.018293226 -0.011418015 -0.0028507083
000360 f3 af 95 bd f0 a7 04 3d ed e9 ad bd a4 00 00 3c
       -0.0730895 0.03238672 -0.084918834 0.007812653
000370 c7 e6 c0 bc 29 f2 76 3d bd 66 24 3d 25 dd f0 ba
       -0.023547543 0.060289536 0.04013704 -0.0018376453
000380 ea ed ba 3d fd 63 7c bd 5e d4 9e bd c4 c9 49 bc
       0.0912741 -0.061618794 -0.077553496 -0.012316171
000390 07 e5 02 3d 9b 55 1f 3d ed 35 0c 3d 83 68 a0 bd
       0.0319567 0.0389 0.034231115 -0.07832434
0003a0 57 80 ba bd 2d 62 72 bd 2f 17 41 3c a5 ad 87 3b
       -0.0910651 -0.05917566 0.011785313 0.004140573
0003b0 51 22 94 3d 4d 73 67 bc 56 31 c4 3c c2 aa a0 3d
       0.07233108 -0.014126611 0.023949306 0.078450695
0003c0 4f a4 a2 3d b4 ec 0f bc 26 4c 55 bd b0 ad cd 3c
       0.079414956 -0.008784462 -0.052074574 0.025107235
0003d0 fe 2c 09 bd 37 28 d4 3c 5e e8 08 bd 80 77 39 bd
       -0.033490174 0.025898082 -0.033424728 -0.04527998
0003e0 21 03 b8 bd 45 3c eb bb 5c ee b7 3c 61 97 0e bd
       -0.08984972 -0.0071788155 0.022452526 -0.034812335
0003f0 ea c7 0f bc d4 33 4c 3c 60 19 33 bd c1 2a 1e 3d
       -0.008775691 0.012463529 -0.04372537 0.038614992

bias f4 [84]
000000 32 fd 49 bd cb 13 8a bd a5 9c 87 bd 94 d2 e2 bc
       -0.04931373 -0.067420565 -0.066216744 -0.027688302
000010 00 29 93 bd f9 b8 26 3d 80 b4 ea bc cd 5f 8b bd
       -0.071855545 0.040703747 -0.028650522 -0.06805382
000020 2a 91 5d bd 20 17 d9 bb b7 8d ff 3b c1 40 85 3c
       -0.054093517 -0.006625071 0.007798876 0.016266229
000030 56 ad 4e bd 70 8b 41 3c d6 e5 4f 3a fe 20 23 bd
       -0.050458275 0.01181303 0.00079306716 -0.039826386
000040 f3 93 c1 bc c1 6e 73 3d 05 3e 98 bd e9 e4 3d bd
       -0.023630118 0.059431795 -0.07433704 -0.046360884
000050 dd e4 a1 bc 9d 10 b3 bc 53 0b 99 3c ef cc 72 bd
       -0.01976245 -0.021858508 0.018682158 -0.05927747
000060 47 38 b3 bd 4e 5a 57 3d 2a c8 6e 3c c6 8c 93 ba
       -0.087509684 0.052576356 0.01457409 -0.0011257164
000070 08 ae 51 bd 0f 2a a2 bc 01 8f ba 3d 59 89 99 bd
       -0.05119136 -0.019795446 0.09109307 -0.074969
000080 7b 2d 5a bd 19 27 97 3d 70 7e 8b 3c 71 bd a9 bd
       -0.05326603 0.07380504 0.017028064 -0.08288086
000090 50 c6 88 3d 5e 5e 99 3d f7 58 40 3d 7d f2 08 3d
       0.0667845 0.07488702 0.046959843 0.03343438
0000a0 8e 1b 6f bd 42 96 17 3d 5d 75 51 3d a4 8b e0 bc
       -0.058375888 0.03700853 0.051137317 -0.027410336
0000b0 1d 8d 86 3d 52 24 a0 bd 4d 52 94 3d 52 fa 77 3c
       0.06569884 -0.078194275 0.0724226 0.015135365
0000c0 14 f3 ea 3c f5 12 d8 bc 60 e6 77 3d 31 97 0c bd
       0.028680362 -0.026376227 0.060522437 -0.034323875
0000d0 81 20 a2 bd 4a b1 1e bd c6 b0 64 bd 7e 50 a0 bd
       -0.07916356 -0.038743295 -0.055832647 -0.07827853
0000e0 7f 57 8c 3b ce 60 b8 3d 02 c0 36 3d ff 7d e8 3c
       0.0042828913 0.09002839 0.044616707 0.028380392
0000f0 0f 71 73 bd ba 0e d6 bc f3 69 6c bd b1 f7 8d 3d
       -0.059433993 -0.026130069 -0.05771823 0.06932009
000100 d0 72 9d bc f7 c9 e3 bc 72 b5 a6 bb f7 35 62 3d
       -0.019219786 -0.027806265 -0.005087548 0.055227246
000110 7b 3f d0 3c 36 f6 8e 3d da 86 56 3d 8b 09 ed 3b
       0.025420895 0.06980555 0.0523747 0.0072338036
000120 12 59 5a bd 6d ae a9 3d e1 b8 a2 3c ed fd 77 bd
       -0.0533076 0.08285222 0.019863548 -0.060544897
000130 67 09 22 3d 75 09 ef 3c ff 54 13 bc 4a da 30 3c
       0.039559748 0.029179314 -0.008992433 0.010794232
000140 53 13 ae bd 95 b7 39 bd e6 b3 b9 3c e6 57 1b 3d
       -0.084997796 -0.045341093 0.02266879 0.037925623

weight f4 [10, 84]
000000 ae f2 46 bd cb 4c b7 bd b2 82 19 bd 33 e0 41 bd
       -0.04857128 -0.08950194 -0.037478156 -0.047332954
000010 b2 f0 b9 bd 40 85 92 bd c0 51 8b bc 96 aa f6 bc
       -0.09079112 -0.07154322 -0.017006755 -0.030110639
000020 e9 f4 b2 3d 8a 53 c3 3b dd 2d 63 bd ef e8 b7 3d
       0.08738119 0.0059608864 -0.05546366 0.089799754
000030 5a 10 cd bb a9 c7 58 3d 77 6e d4 3d 0f 62 64 bd
       -0.006258053 0.052924786 0.10372632 -0.05575758
000040 7b 75 d2 3d 66 25 3f bd 04 70 6a bd ca 1e 9d 3d
       0.10276314 -0.046666525 -0.057235733 0.07671888
000050 7e e9 b1 bd ce 10 d0 bb 06 ef ff bc ef 2a c6 3d
       -0.08687113 -0.0063496595 -0.031241905 0.09676158
000060 b7 e7 c4 3d d4 6e 02 3d a2 f4 70 3d 3c 5d 07 bd
       0.096145086 0.031843975 0.05882705 -0.0330479
000070 bb 8d f4 3c 2a 14 09 bc 31 8b a0 3d 81 3a e4 bc
       0.029852739 -0.008366624 0.07839049 -0.027859928
000080 9a 7c 37 bc 4e 9f de bd 36 99 7e 3d ce f0 37 bd
       -0.011199141 -0.10870229 0.062157832 -0.044907384
000090 b3 05 99 bd 02 34 c5 3d af e6 ae bd 70 81 7a bb
       -0.0747179 0.0962906 -0.08540093 -0.0038224123
0000a0 b6 65 9d 3d 30 fb 58 3d 65 2d 97 bd 5e f0 6f bd
       0.076854154 0.052973926 -0.07381705 -0.05857884
0000b0 00 36 da 3d ca 06 19 bd 87 b5 d2 3d f6 eb a6 bd
       0.10654831 -0.03735999 0.1028853 -0.08150475
0000c0 98 cf 9d bd 4d ab cb 3d dc 68 d8 bd d5 e5 00 3d
       -0.07705611 0.099447824 -0.10566875 0.031469185
0000d0 bf b4 72 3b 06 f0 d0 3d 7b b8 b7 bd 63 4d d1 3d
       0.0037034003 0.10202031 -0.08970734 0.102198385
0000e0 3e 14 9c 3c 2f bd a9 3c 4a 4f 5b bd 60 c6 a1 bc
       0.019052621 0.020720093 -0.053542413 -0.019747913
0000f0 9a 0c 96 bd 68 b8 70 3c 24 11 0c 3d a9 91 fc bc
       -0.07326622 0.014692403 0.034196034 -0.030831175
000100 1b 34 7b 3d 9d 29 a0 bc 78 c2 8b bd ea 8a c3 3d
       0.06132899 -0.019551093 -0.06824201 0.0954798
000110 67 dd 65 3d 59 ac b2 3d 2e 0a a8 3d 8d f9 d4 3c
       0.05611935 0.08724279 0.082050666 0.025997901
000120 55 ba db bd 68 26 8b 3d b5 2d 8f 3d 18 dc dc 3d
       -0.107288994 0.06794435 0.0699114 0.10784167
000130 9a 3e ac bd ee 00 c8 bd eb b7 32 3d 38 ab 83 3d
       -0.08410378 -0.09765802 0.04363243 0.06429142
000140 56 96 22 bc b0 5f 87 bd 19 34 56 bd 7c ea c5 3d
       -0.009923538 -0.06610048 -0.052295778 0.09663865
000150 69 0f 2a 3d ad 67 96 3a 45 8d 21 3d b5 72 96 3d
       0.041518603 0.001147499 0.039441366 0.073460974
000160 e6 ec ce 3d ca 96 03 3c 46 2d 4f bd 0c 72 92 bd
       0.101037785 0.008031556 -0.050580285 -0.07150659
000170 5b 2f d0 bc b5 7c 96 3c d4 b8 1e 3b dc f7 a0 bd
       -0.025413206 0.018370012 0.0024219053 -0.078597754
000180 09 9a 9d bc 86 71 c3 bd 11 a3 8d bd a2 c8 c6 bd
       -0.019238489 -0.09543137 -0.06915868 -0.097062364
000190 f8 e6 4d b9 2f ff c2 3d 68 26 62 3c f7 fc 71 3d
       -0.00019636366 0.09521329 0.013803102 0.059079137
0001a0 e4 30 82 3d af 88 4e bd d7 e7 a4 3d d3 9b a7 3d
       0.063569814 -0.05042332 0.080520324 0.08184018
0001b0 0f ec b8 3d 04 ee b0 bc 56 37 e5 3c 2c 53 24 3b
       0.090293996 -0.02159787 0.027980488 0.0025073988
0001c0 78 25 20 3c 11 3c 14 bd 13 16 9a 3d b6 07 6e bc
       0.009774558 -0.036190096 0.075237416 -0.014528206
0001d0 b4 81 48 bc ad 98 4f 3d 7d f3 c7 bd 63 20 88 bd
       -0.012237955 0.050682712 -0.097632386 -0.06646802
0001e0 48 f5 5d 3d 74 73 3a bb d7 5d 1f bd 41 80 a0 3d
       0.054188997 -0.0028450163 -0.038907852 0.078369625
0001f0 94 11 63 bd 83 71 70 3d 48 a3 d1 bd dc 34 b0 bd
       -0.055436686 0.058702003 -0.102362216 -0.08603832
000200 09 2a 2a 3d 39 0c 82 bd d6 52 b6 3d 39 12 80 bd
       0.041543994 -0.063499875 0.089025185 -0.06253476
000210 e3 48 95 bd 26 df cb 3c 69 0b 23 3c d3 e5 19 bc
       -0.07289293 0.024886679 0.009951451 -0.009393173
000220 b3 70 91 3d fa d4 a3 3d 6e a5 9f 3c b5 46 a0 bd
       0.07101574 0.079996064 0.019488063 -0.07825986
000230 dc e6 d1 3d 46 3f a2 bd 92 15 c6 3d bf fe 66 3d
       0.10249111 -0.07922225 0.09672083 0.05639529
000240 7f 0f dd bd 81 eb 69 bd 4c e6 db bd 0c 0e 9b 3d
       -0.10793971 -0.05710936 -0.10737285 0.075710386
000250 13 42 df bd 60 46 67 bd 7a 10 9d 3c 58 e6 44 3d
       -0.109012745 -0.0564636 0.019172896 0.048071235
000260 62 05 34 3d 97 61 ae bd d9 18 88 3d 65 2f b2 3c
       0.043950446 -0.085147075 0.06645364 0.021751115
000270 f4 fa 25 bd 69 8b 1a 3d 27 d1 8c 3d c8 5d c1 bd
       -0.04052253 0.037730608 0.0687583 -0.094417155
000280 f8 3c be 3d 2a 20 d4 3d 08 0b 88 3d 36 e5 d8 3d
       0.092889726 0.10357697 0.06642729 0.105905935
000290 63 6b 9e 3c 2b c2 b8 bd ac 68 bd 3c 6d e2 d4 3d
       0.019338315 -0.090214096 0.0231212 0.1039475
0002a0 7f ed d7 bd fe 77 7d bd 25 3e b5 3b ab bb cc 3d
       -0.10543346 -0.06188201 0.00553109 0.09996732
0002b0 0e 31 cb 3d 30 e7 c6 bd fe 2b ca 3c aa ab 46 bc
       0.09921466 -0.09712064 0.02467918 -0.012125889
0002c0 c3 79 a9 3d 21 6f 5d bd d6 33 ca 3d 7c 1a f5 3c
       0.08275177 -0.05406106 0.09873168 0.029919855
0002d0 bf 5d 60 3d f6 ed ed bc 03 37 60 bd 71 b8 69 3d
       0.054776903 -0.029044133 -0.054739963 0.057060663
0002e0 3f c7 a1 bc ba b8 be bb f1 a0 2c bd 3c af e9 3b
       -0.019748328 -0.005820361 -0.042145673 0.0071314853
0002f0 1c bb c6 3d 5c 0d 85 3d db 7a b9 bd 67 4d 3f bd
       0.09703657 0.06496689 -0.09056636 -0.046704676
000300 15 b2 bc bd 93 40 a2 bb da 89 ee 3c ed a2 5e 3d
       -0.09213654 -0.0049515455 0.029118467 0.054354597
000310 0c 00 c6 bd a8 cf 0d 3d ba cd c3 3d 6f 82 d7 3d
       -0.09667978 0.034621865 0.095607236 0.10522925
000320 97 60 d7 3d 22 fa 21 bd da dd d8 bd 68 de b2 3a
       0.1051647 -0.039545186 -0.1058919 0.0013646604
000330 d1 c5 ad bc cf af 80 3c 40 85 2e 3d 64 0a c2 bd
       -0.02121249 0.015708832 0.042607546 -0.09474638
000340 d1 6e 55 bc ee 71 cf bd ce 2a fa bb 0f 8f 9c bd
       -0.013026909 -0.10129152 -0.0076344972 -0.07644474
000350 30 e8 c7 3c 53 5e ae 3d 41 77 56 3d 2c 50 72 bd
       0.024402708 0.08514085 0.052359823 -0.05915849
000360 ab 5d c9 bc f9 06 5d bd a1 d0 56 3d c2 31 66 bd
       -0.024580797 -0.053961728 0.052445058 -0.056199796
000370 86 fb 83 bd fb 3e ad bd 97 dd 02 3d 86 60 32 3d
       -0.06444459 -0.08459278 0.031949606 0.043549083
000380 8c 57 d3 3d 12 ff 51 bc fa 7f ff bc cd 05 4f 3d
       0.103194326 -0.012817161 -0.031188954 0.05054264
000390 27 64 3e bd b7 4b 92 3d 5d 39 19 3d 24 83 42 bd
       -0.04648223 0.07143348 0.03740822 -0.047488347
0003a0 33 16 a7 3d 22 b9 82 3c 4b 58 ab bd 26 b7 45 3c
       0.08158531 0.015957419 -0.0836645 0.012067592
0003b0 a8 6e 90 bd 66 6a cb 3c 9f db 03 3d 37 d6 58 3d
       -0.07052356 0.024831008 0.03219187 0.052938666
0003c0 5a 93 0b bd da 8a c9 bd e5 90 b7 bc be f0 7a bd
       -0.034076072 -0.09840937 -0.022407958 -0.061264746
0003d0 4f a8 7e bd b8 a4 2d 3d b2 87 a8 3d 7b 6c 94 bc
       -0.06217223 0.042393416 0.08229007 -0.018118134
0003e0 1a d9 50 bd af 6b dc 3d d5 4a 38 3d 92 5b 80 3d
       -0.050988294 0.107627265 0.04499324 0.06267466
0003f0 9b 2a 15 bb af 90 42 bd 29 e0 1e bc 11 1f d6 3d
       -0.002276099 -0.047501262 -0.009696999 0.10455144

bias f4 [10]
000000 14 80 d2 bd 23 43 a5 3d 45 bf a3 bd 9f 87 51 bd
       -0.10278335 0.08069446 -0.07995466 -0.05115473
000010 88 2d 24 3c a3 4c c8 bd 24 12 82 3c 5b b9 d8 bc
       0.010020621 -0.09780242 0.01587779 -0.026455572
000020 ac 91 c2 bd 0e 72 98 bd
       -0.09500441 -0.07443629
