Pytorch-LeNet/LeNet.pt (torch, 251277 bytes, 10 tensors)

weight f4 [6, 1, 5, 5]
0.1938105 -0.17769818 0.07039411 0.16854571 0.08751068 -0.06325467 0.16609804 -0.083827876
-0.16335712 0.060719278 -0.04547734 -0.09837847 -0.028074099 0.16171205 0.13376473 -0.09802961
-0.16224399 -0.031590056 0.014968705 0.17592202 -0.14723869 0.062204387 -0.07065356 0.17695096
0.09208193 0.0335762 0.024022793 -0.17330419 0.03385501 0.058610916 0.14644971 0.08378797
-0.18607362 0.16434811 -0.17004 0.050637197 0.08783012 -0.17958842 0.1916306 -0.05791073
0.04961736 0.1448607 -0.041633274 -0.11155143 0.050949503 -0.03067801 -0.009136272 0.06252976
0.18001476 0.19762543 0.08727925 0.06733403 0.15078223 -0.1764295 -0.08502865 -0.022475673
0.09995277 -0.19398668 0.052481223 -0.08783045 0.014102268 -0.17642608 0.07840073 -0.010859775
-0.17675939 -0.04484272 -0.10318225 -0.09653983 -0.03926487 -0.13362293 0.12727855 -0.16420643
-0.0018346548 -0.13178714 -0.03730004 -0.016883874 -0.090168975 0.06301432 0.15195182 -0.10019777
-0.14508975 0.10084446 0.050876617 -0.1988117 -0.03505051 -0.04461615 -0.14817162 0.14780186
-0.10878732 -0.07043033 0.011254382 0.14674747 -0.01125896 0.01581564 -0.15987277 0.19532256
-0.19789532 0.17810424 -0.066579655 -0.11971462 -0.04167366 -0.04099498 -0.006613207 -0.10108035
-0.00073649886 -0.101258375 -0.16359472 0.12571621 0.013978148 -0.08548572 -0.17153464 -0.07253256
0.071022056 -0.0064743045 -0.08251257 -0.07737847 -0.12308901 -0.007859349 0.16782466 0.14402977
0.13015378 -0.054244734 -0.084435515 -0.092147045 0.040774822 0.011015964 -0.16010506 0.11319349
0.013226795 -0.19013487 -0.19810744 0.10069263 0.1837015 -0.052521802 0.01334641 -0.038688947
-0.10151465 -0.08218455 0.07412117 0.1867783 -0.18546744 0.06401823 0.16296282 0.023767306
0.0012457609 0.0017979145 -0.18826571 0.09914913 0.07997105 0.14287697
00000000: 4276 463e 83f6 35be ca2a 903d 3f97 2c3e
00000010: cd38 b33d aa8b 81bd 9b15 2a3e f3ad abbd
00000020: 1747 27be c7b4 783d 7346 3abd a77a c9bd
00000030: a7fb e5bc d897 253e 9ff9 083e c0c3 c8bd
00000040: 4a23 26be 9364 01bd 4d3f 753c e724 343e
00000050: bdc5 16be 07ca 7e3d d0b2 90bd a232 353e
00000060: 7395 bc3d 3387 093d 73cb c43c a776 31be
00000070: 8dab 0a3d 0012 703d eaf6 153e 0799 ab3d
00000080: 158a 3ebe df4a 283e f71e 2ebe f368 4f3d
00000090: 47e0 b33d 07e6 37be d03a 443e cd33 6dbd
000000a0: 933b 4b3d 5d56 143e a787 2abd 1375 e4bd
000000b0: 6db0 503d 7350 fbbc 4db0 15bc 9a0f 803d
000000c0: ca55 383e 525e 4a3e 77bf b23d 6de6 893d
000000d0: a866 1a3e efa9 34be 8023 aebd e71e b8bc
000000e0: 0ab4 cc3d 72a4 46be 8df6 563d 73e0 b3bd
000000f0: 330d 673c 0aa9 34be 9090 a03d 33ed 31bc
00000100: 6a00 35be 00ad 37bd 3751 d3bd adb6 c5bd
00000110: 33d4 20bd 73d4 08be 4f55 023e bb25 28be
00000120: cd78 f0ba 35f3 06be edc7 18bd 0d50 8abc
00000130: 83aa b8bd a70d 813d 4299 1b3e 7d34 cdbd
00000140: 6892 14be 8a87 ce3d 0064 503d 4b95 4bbe
00000150: 2091 0fbd 6dbf 36bd 4dba 17be 5f59 173e
00000160: e3cb debd c73d 90bd 4d64 383c f844 163e
00000170: 8077 38bc cd8f 813c b0b5 23be a302 483e
00000180: 12a5 4abe f560 363e ea5a 88bd f02c f5bd
00000190: 00b2 2abd 5aea 27bd 9ab3 d8bb 3703 cfbd
000001a0: 9a11 41ba 8d60 cfbd 6085 27be c0bb 003e
000001b0: 9a04 653c 2313 afbd c7a6 2fbe f38b 94bd
000001c0: 0374 913d 6726 d4bb 5afc a8bd 9a78 9ebd
000001d0: 1716 fcbd 80c4 00bc 3ada 2b3e 8a7c 133e
000001e0: 0847 053e ba2f 5ebd 87ec acbd 97b7 bcbd
000001f0: 8003 273d 4d7c 343c 95f2 23be fdd1 e73d
00000200: 33b5 583c b7b2 42be addc 4abe f037 ce3d
00000210: 3f1c 3c3e 1a21 57bd e7aa 5a3c 4d78 1ebd
00000220: eae6 cfbd 6050 a8bd d7cc 973d d042 3f3e
00000230: 2deb 3dbe fd1b 833d badf 263e a7b3 c23c
00000240: cd48 a33a 00a8 eb3a bac8 40be b30e cb3d
00000250: ddc7 a33d 574e 123e

bias f4 [6]
-0.035123635 0.061182596 -0.10587364 -0.1686466 0.044012096 0.19297503
00000000: cddd 0fbd 9a9a 7a3d 47d4 d8bd b2b1 2cbe
00000010: 0746 343d 3f9b 453e

weight f4 [16, 6, 5, 5]
0.023398768 0.027750745 0.062615246 -0.06276287 -0.0657595 0.06508337 -0.03400755 0.013505849
0.0008821671 0.0078523895 -0.07346596 0.0021097239 -0.011886416 -0.07543057 0.056187686 -0.07566716
-0.02590795 0.053226415 0.042938933 -0.010522826 -0.07614564 -0.005993019 -0.0037715652 0.03144907
-0.0052496693 0.028544758 -0.038741242 0.015127346 -0.045420855 0.052544814 -0.0686818 -0.051869415
-0.029696938 -0.038714085 -0.06091914 -0.0036539955 0.07566519 -0.044825997 0.016627243 -0.08104319
0.03304666 -0.025899287 -0.07499691 0.04167005 0.08101904 -0.07872353 -0.039780173 0.0014988168
0.05234275 0.047795035 -0.06467878 -0.02576598 -0.017293796 -0.055702183 -0.011470449 0.0376818
-0.034075137 -0.03990527 -0.014790414 -0.009823082 -0.062506974 -0.06692201 -0.055011783 0.0036420526
0.01726661 0.013913854 -0.029315487 0.018623037 0.043230146 -0.048482172 -0.052217375 0.04279851
0.015931413 -0.02661948 -0.023304569 0.04084565 -0.06048053 0.02266451 0.0010167022 -0.020220667
0.037888568 0.018321594 -0.080292255 -0.06460552 -0.05891072 0.057839345 0.008653292 0.07300286
0.061210264 0.043378476 -0.014017923 0.0031714428 0.022294095 -0.072463356 -0.054372746 0.04394751
-0.06563641 0.011520459 -0.019948678 -0.0654894 -0.07464397 -0.019089034 -0.056144938 0.015058209
-0.04492668 -0.06648543 -0.021540496 -0.006136411 0.044438772 0.03479782 0.041155074 -0.0316581
0.07524459 0.08116436 0.021403616 -0.025468128 -0.018706862 0.01223566 0.04720588 0.046437915
0.011524596 0.06797589 -0.0026544144 0.025130924 -0.060998768 -0.049732096 0.06488181 0.044458777
0.042321097 0.027500432 -0.078624114 0.063899465 -0.070765786 0.04398982 -0.029466655 -0.028588528
-0.024074081 0.06305344 -0.011838907 0.0258437 -0.0031291805 0.0063724946 0.078861274 -0.038097505
-0.0807222 0.055556428 0.057054855 -0.072188176 -0.05207843 -0.07278629 -0.06400339 0.03250844
0.035255216 -0.05225704 0.020805703 0.015863705 -0.024231946 0.037028328 -0.02988636 0.075409435
-0.051705554 0.08080541 0.07934748 0.07410408 0.01841669 -0.0029134785 0.0631783 -0.00092604524
0.04884703 -0.011599816 -0.0076830382 -0.070421845 0.011455693 -0.040833123 0.021905528 0.07681846
0.01974336 -0.033887777 0.05700713 -0.059247244 -0.022413796 0.07728875 0.026630918 -0.02890935
0.072466455 -0.06650102 -0.032428287 0.03872989 -0.021686887 -0.018482497 -0.03138216 0.034808286
-0.058928054 -0.07409945 0.013652862 -0.038490314 0.07399219 -0.014575803 0.073447414 0.07243923
0.035625365 0.006196495 0.021510012 -0.065085374 0.07565126 -0.060088705 0.046118885 -0.02540083
0.031810097 0.05555879 0.013854179 0.07044503 0.009639812 -0.02791667 -0.051749412 0.001225464
0.0021705867 -0.014413683 -0.0410604 0.049456496 0.0018744092 -0.05011019 -0.024225796 0.07186609
-0.06244432 0.066862285 0.056571115 0.027580528 0.020709693 0.06922917 0.040445823 0.030869745
0.025679585 -0.052548397 0.07541748 0.0724016 -0.06620852 0.037970822 -0.0405828 0.052923415
0.027830325 0.0033748026 0.07646778 -0.054440636 0.0011399172 0.018913541 0.06452004 0.03862008
0.040867765 0.07542024 -0.08042446 0.0015448558 -0.06424162 0.044364117 -0.034641515 0.021535426
00000000: c6ae bf3c 8855 e33c 6c3c 803d d289 80bd
00000010: ebac 86bd 6e4a 853d 804b 0bbd a347 5d3c
00000020: 3b41 673a 4fa7 003c 5275 96bd 4b43 0a3b
00000030: 3ebf 42bc 587b 9abd 0f25 663d 62f7 9abd
00000040: e93c d4bc f103 5a3d bce0 2f3d ee67 2cbc
00000050: 3ff2 9bbd 1661 c4bb 5d2c 77bb bdd0 003d
00000060: 6b05 acbb b2d6 e93c 23af 1ebd b0d8 773c
00000070: 380b 3abd 3b39 573d 0ba9 8cbd 0675 54bd
00000080: fe46 f3bc a992 1ebd 5986 79bd df77 6fbb
00000090: 5af6 9a3d 779b 37bd db35 883c f9f9 a5bd
000000a0: ef5b 073d be2a d4bc fb97 99bd 37ae 2a3d
000000b0: 4fed a53d cd39 a1bd 89f0 22bd f273 c43a
000000c0: 5a65 563d bac4 433d 4f76 84bd 2d13 d3bc
000000d0: b8ab 8dbc f927 64bd 8dee 3bbc 3b58 1a3d
000000e0: 5f92 0bbd b573 23bd 7e53 72bc fef0 20bc
000000f0: a803 80bd 680e 89bd 0954 61bd 81af 6e3b
00000100: b572 8d3c eff6 633c 0827 f0bc 578f 983c
00000110: 1812 313d 3e95 46bd e3e1 55bd 7e4d 2f3d
00000120: 9882 823c 1911 dabc 39e9 bebc c54d 273d
00000130: 6fba 77bd ecaa b93c dd42 853a d0a5 a5bc
00000140: 0b31 1b3d 2b17 963c 4470 a4bd e64f 84bd
00000150: 5e4c 71bd f3e8 6c3d 8ac6 0d3c 8682 953d
00000160: 9db7 7a3d a1ad 313d 6eab 65bc fbd7 4f3b
00000170: 1ba2 b63c ab67 94bd f5b5 5ebd 4e02 343d
00000180: 626c 86bd 4fc0 3c3c 696b a3bc 4e1f 86bd
00000190: f0de 98bd 9b60 9cbc 3cf8 65bd b5b6 763c
000001a0: 0a05 38bd 8329 88bd b275 b0bc f213 c9bb
000001b0: 6e05 363d 2988 0e3d 3992 283d edab 01bd
000001c0: d619 9a3d 8039 a63d a356 af3c 89a2 d0bc
000001d0: 223f 99bc 1478 483c f45a 413d af35 3e3d
000001e0: a9d1 3c3c f236 8b3d aff5 2dbb 5edf cd3c
000001f0: d8d9 79bd e2b3 4bbd c1e0 843d 681a 363d
00000200: e358 2d3d 9648 e13c ae05 a1bd b9dd 823d
00000210: a7ed 90bd ab2e 343d 0e64 f1bc 7d32 eabc
00000220: 0237 c5bc 2922 813d faf7 41bc 2bb6 d33c
00000230: f012 4dbb 5cd0 d03b 0582 a13d 210c 1cbd
00000240: ae51 a5bd 238f 633d 5ab2 693d 65d7 93bd
00000250: 3150 55bd fa10 95bd 3614 83bd 9227 053d
00000260: c667 103d 7a0b 56bd b970 aa3c 9af4 813c
00000270: 1382 c6bc 04ab 173d 3dd4 f4bc 4370 9a3d
00000280: 34c9 53bd 4f7d a53d ee80 a23d e1c3 973d
00000290: 99de 963c 0ff0 3ebb a063 813d d8c1 72ba
000002a0: d313 483d 280d 3ebc ffc1 fbbb 5439 90bd
000002b0: a9b0 3b3c a240 27bd 3973 b33c ff52 9d3d
000002c0: d4bc a13c e9cd 0abd 4f80 693d 3dad 72bd
000002d0: 239d b7bc 9049 9e3d 1529 da3c 4dd3 ecbc
000002e0: 4b69 943d b031 88bd 86d3 04bd 3ca3 1e3d
000002f0: b3a8 b1bc 9b68 97bc 948a 00bd 2293 0e3d
00000300: 8b5e 71bd 74c1 97bd 41b0 5f3c 05a8 1dbd
00000310: 3889 973d 59cf 6ebc 996b 963d 055b 943d
00000320: e7eb 113d f80b cb3b c435 b03c 7b4b 85bd
00000330: 0cef 9a3d 931f 76bd 28e7 3c3d 6715 d0bc
00000340: 4e4b 023d 9d91 633d a3fc 623c 7c45 903d
00000350: 4df0 1d3c 80b1 e4bc 31f7 53bd c09f a03a
00000360: 6740 0e3b 5e27 6cbc f32e 28bd e592 4a3d
00000370: bcae f53a 5840 4dbd 2d75 c6bc 872e 933d
00000380: 9ec5 7fbd 18ef 883d 1db7 673d 8ff0 e13c
00000390: 60a7 a93c 06c8 8d3d 85aa 253d 8ce2 fc3c
000003a0: fe5d d23c fd3c 57bd 7b74 9a3d 4a47 943d
000003b0: 5598 87bd 4b87 1b3d 263a 26bd 39c6 583d
000003c0: 6cfc e33c cb2b 5d3b 249b 9c3d 25fd 5ebd
000003d0: 4669 953a 92f0 9a3c 1523 843d 1730 1e3d
000003e0: f564 273d ed75 9a3d 94b5 a4bd c27c ca3a
000003f0: 1c91 83bd 26b7 353d 43e4 0dbd 106b b03c

bias f4 [16]
0.002394815 -0.012022003 -0.058828183 -0.07001958 0.0054674344 -0.033303056 0.017725939 0.010805133
0.03235921 0.03575626 0.0041097812 0.07569896 -0.019343114 0.03211016 -0.03415466 0.044507667
00000000: 54f2 1c3b eff7 44bc d2f5 70bd 6d66 8fbd
00000010: 2a28 b33b c968 08bd fd35 913c 0308 313c
00000020: 178b 043d 2875 123d 58ab 863b 0e08 9b3d
00000030: 7375 9ebc f185 033d c2e5 0bbd ac4d 363d

weight f4 [120, 400]
0.015774418 0.042440843 0.024727374 0.031179387 -0.029970814 0.00096711516 0.005109304 -0.03127821
-0.027649974 -0.044408865 -0.022386253 8.544326e-05 0.026792033 0.0040846528 0.020609766 0.0127529325
0.030911792 -0.020613624 0.034208644 -0.032375563 -0.0034887672 0.01134296 0.03364786 0.02524882
0.01776582 -0.048607387 0.009816485 -0.020155568 0.023498302 0.02045598 0.0057066916 -0.030670827
-0.015685434 -0.0376652 -0.03800514 -0.038348682 -0.0045974194 0.0051386775 0.028880393 -0.029397607
0.02276032 -0.015591258 0.029284323 0.04821496 -0.018943137 -0.048270572 0.03641296 -0.01889655
-0.048546053 -0.023974223 0.0012098373 -0.0119922105 0.03597016 0.01749087 0.014223105 0.046902772
0.005535287 0.022794336 -0.025876952 0.006428623 -0.023350758 0.0003838241 0.00467211 0.03154933
0.0024859607 0.010398197 -0.0020041585 -0.04908345 -0.015502381 -0.0189529 0.047996875 0.011400968
0.0066801193 -0.02418611 0.015300125 0.041577935 0.03862014 -0.017046316 -0.0058163228 0.009373242
0.014677829 -0.017838215 0.041984122 -0.016727095 -0.02128685 -0.018188203 -0.02774914 -0.041494817
0.045548756 0.022570241 -0.04934171 -0.030045688 0.040170718 -0.022525216 -0.029594153 -0.04858182
0.01983033 0.010497189 0.034672942 0.004986429 -0.04421044 0.0009661317 -0.043151677 0.022442872
0.02285025 -0.031618137 -0.030191898 -0.033090528 -0.010690081 -0.019330317 -0.011576319 -0.014116812
-0.024062438 0.027434928 0.0026024163 0.042684585 -0.04176891 0.027633179 0.014545286 -0.019023372
0.009510219 0.031694334 -0.03898532 -0.015412444 0.023875613 0.009948022 0.005287874 0.049736805
0.0365398 -0.026424646 -0.027135283 -0.04018241 0.017877448 0.0070611956 -0.0047845724 -0.006526357
-0.01378184 0.0070043206 -0.026922334 -0.04698462 0.014584035 0.036061157 0.045859333 0.04235354
-0.040960874 0.034966554 0.018932909 -0.0061394097 -0.020597769 -0.04338928 -0.027494585 -0.03182834
-0.040684234 0.04004852 -0.04872135 0.00767079 0.042794544 0.019435352 -0.01673308 0.043440044
0.04786777 -0.0463156 -0.030815506 -0.008081066 0.033258744 0.020500023 0.044886798 -0.028034454
0.017065281 0.017328322 -0.0017576397 0.004327703 0.0401239 0.013649106 -0.04173494 -0.0043881773
-0.008130706 0.040790677 -0.00019738078 0.04875159 0.032098997 0.040314894 -0.01787513 0.009051031
0.0011752129 -0.008550596 -0.04871592 -0.045449566 0.015012902 0.018959606 0.029533004 -0.027578754
0.047576405 -0.04147436 -0.04412234 0.0045342683 0.030999674 -0.046908926 -0.0485194 -0.0148974955
-0.038405817 0.025871176 -0.023557335 0.044451784 -0.03953448 0.004645443 0.01746652 0.04888779
0.022902627 0.027986204 0.001960534 0.0006244004 -0.044048633 -0.01663881 0.03457832 -0.04660651
0.039017715 -0.013071328 -0.02464037 0.018055027 0.041947182 -0.014463293 0.020122958 -0.044368464
0.015378917 -0.0102029145 0.03498281 0.025834912 -0.008068949 0.036929753 0.030662686 0.028477078
-0.036544528 0.037692424 -0.045288224 -0.034986176 0.04494214 -0.022795355 0.03442904 0.003190261
0.039708544 0.040546414 0.020978535 -0.0108499825 -0.0062747 -0.029407263 -0.032978166 -0.012796134
-0.010430479 -0.04594922 0.025877459 -0.0060815397 0.03781432 -0.018313104 0.02439034 -0.026008625
00000000: 5a39 813c 73d6 2d3d 1091 ca3c ea6b ff3c
00000010: 5a85 f5bc 0086 7d3a f36b a73b 951d 00bd
00000020: 3382 e2bc 12e6 35bd 6063 b7bc 0030 b338
00000030: f77a db3c 8dd8 853b d0d5 a83c adf1 503c
00000040: ba3a fd3c e7dd a8bc 5d1e 0c3d 3d9c 04bd
00000050: cda3 64bb d3d7 393c 57d2 093d 9dd6 ce3c
00000060: a089 913c 8a18 47bd 53d5 203c 4a1d a5bc
00000070: 837f c03c 4d93 a73c 33ff ba3b 6341 fbbc
00000080: bd7e 80bc d346 1abd 47ab 1bbd 8213 1dbd
00000090: f3a5 96bb 5a62 a83b 9396 ec3c 40d3 f0bc
000000a0: da73 ba3c 7a72 7fbc ade5 ef3c 0d7d 453d
000000b0: a32e 9bbc 5db7 45bd c225 153d f0cc 9abc
000000c0: 3ad8 46bd 9765 c4bc 6793 9e3a fa7a 44bc
000000d0: 7255 133d 0349 8f3c 0708 693c 1f1d 403d
000000e0: 5a61 b53b 30bb ba3c e7fb d3bc 33a7 d23b
000000f0: 174a bfbc 003c c939 8018 993b df39 013d
00000100: 80eb 223b 335d 2a3c 3358 03bb ba0b 49bd
00000110: b3fd 7dbc 1d43 9bbc 5f98 443d 20cb 3a3c
00000120: e7e4 da3b f321 c6bc 60ad 7a3c a04d 2a3d
00000130: 2730 1e3d b7a4 8bbc da96 bebb 3a92 193c
00000140: 477b 703c 7321 92bc 8bf7 2b3d 4307 89bc
00000150: c361 aebc 6dff 94bc 2a52 e3bc 78f6 29bd
00000160: 5591 3a3d 3ae5 b83c 881a 4abd 6022 f6bc
00000170: 0d8a 243d cd86 b8bc 706f f2bc bbfd 46bd
00000180: 3773 a23c 67fc 2b3c 3705 0e3d 3365 a33b
00000190: 0216 35bd 0044 7d3a d0bf 30bd 1dda b73c
000001a0: 7330 bb3c 0582 01bd 0055 f7bc ef89 07bd
000001b0: 7325 2fbc 9d5a 9ebc 9aaa 3dbc 334a 67bc
000001c0: 971e c5bc 37bf e03c 4d8d 2a3b 08d6 2e3d
000001d0: e015 2bbd fa5e e23c 5a4f 6e3c e7d6 9bbc
000001e0: c0d0 1b3c ebd1 013d 12af 1fbd 7a84 7cbc
000001f0: ca96 c33c 07fd 223c e745 ad3b d2b8 4b3d
00000200: c2aa 153d 8078 d8bc d04a debc 5096 24bd
00000210: ba73 923c 9a61 e73b e7c7 9cbb 0ddb d5bb
00000220: 3acd 61bc 8084 e53b 3a8c dcbc f272 40bd
00000230: e0f1 6e3c ddb4 133d ffd6 3b3d e87a 2d3d
00000240: 97c6 27bd 1739 0f3d 3019 9b3c 1a2d c9bb
00000250: a7bc a8bc f5b8 31bd 533c e1bc 6f5e 02bd
00000260: 83a4 26bd eb09 243d 0a90 47bd 405b fb3b
00000270: 5549 2f3d e336 9f3c d013 89bc 30ee 313d
00000280: ff10 443d 6db5 3dbd cd70 fcbc 7366 04bc
00000290: 523a 083d aaef a73c 38db 373d 83a8 e5bc
000002a0: 7dcc 8b3c 20f4 8d3c 9a60 e6ba 67cf 8d3b
000002b0: f558 243d 80a0 5f3c 42f2 2abd b3ca 8fbb
000002c0: a736 05bc 2014 273d 00f8 4eb9 bfaf 473d
000002d0: 3d7a 033d 3b21 253d dd6e 92bc c74a 143c
000002e0: 9a09 9a3a cd17 0cbc 588a 47bd 5329 3abd
000002f0: adf8 753c 2d51 9b3c 33ef f13c d7ec e1bc
00000300: 7adf 423d 05e1 29bd a0b9 34bd 3394 943b
00000310: 07f3 fd3c 9323 40bd 47bc 46bd a014 74bc
00000320: 6b4f 1dbd caef d33c 50fb c0bc 1313 363d
00000330: e8ee 21bd cd38 983b f315 8f3c 903e 483d
00000340: 4a9e bb3c 5343 e53c 4d7c 003b cdae 233a
00000350: 576c 34bd 1d4e 88bc ffa1 0d3d 78e6 3ebd
00000360: 0ad1 1f3d 2029 56bc 9ada c9bc 23e8 933c
00000370: cfd0 2b3d 73f7 6cbc e7d8 a43c b5bb 35bd
00000380: daf7 7b3c 202a 27bc 234a 0f3d bda3 d33c
00000390: a033 04bc a743 173d 5030 fb3c c348 e93c
000003a0: b7af 15bd 5f63 1a3d 2580 39bd aa4d 0fbd
000003b0: 4015 383d 53bd babc 7705 0d3d b313 513b
000003c0: 6da5 223d ff13 263d 2ddb ab3c 20c4 31bc
000003d0: 009c cdbb 80e7 f0bc 1d14 07bd e0a6 51bc
000003e0: 9ae4 2abc 4035 3cbd f7fc d33c a747 c7bb
000003f0: 30e3 1a3d 5d05 96bc 40ce c73c 0a10 d5bc

bias f4 [120]
-0.017215108 0.04118949 -0.039920527 0.037944414 0.036963206 -0.012851471 -0.0419244 -0.040888574
0.006684703 -0.00477047 -0.020628398 0.04365647 -0.04347829 0.020179212 -0.04912266 0.011881667
0.04408264 -0.040345915 0.038518496 0.003721845 0.040737122 0.0070304456 0.030644525 0.023126489
-0.019165844 0.00085585716 -0.017544765 0.032161076 0.010188669 -0.03048104 0.030705273 -0.042741906
-0.03454585 0.022751326 -0.018611973 -0.04205882 -0.025002664 -0.043964397 -0.01606586 0.03973822
0.036826342 -0.011719191 -0.023350919 0.02206151 0.03716309 0.03109116 0.03948629 -0.045239817
0.031981558 0.04232194 0.035237778 0.027777065 0.024184389 -0.0008223355 0.012119383 0.0023327232
0.043228418 0.023269111 0.045485146 -0.04585698 0.019499218 -0.039631803 -0.010559625 0.01934421
-0.016127575 0.0048997165 -0.043290164 -0.040260494 -0.039923023 0.0033380985 -0.048527457 -0.009201569
0.0080947345 -0.039770823 0.047085114 0.0005972862 0.0015581727 0.02677294 -0.040851563 0.03199997
-0.04386692 0.023351777 0.03419563 -0.019748634 0.03389007 0.027915567 0.023415197 -0.011366886
0.04651891 0.0317869 -0.041375007 -0.021377152 -0.020156622 -0.01634558 -0.024578232 -0.048214454
-0.025639331 -0.040656317 -0.039373666 0.043994915 0.043926626 0.029211765 0.008170927 0.016487842
-0.0047427057 -0.023033435 -0.014369917 -0.009251768 0.044395506 0.009149844 0.028294683 -0.046416946
-0.047441423 0.028479708 0.044954896 0.046905167 0.0016633988 0.030608399 -0.04281327 0.026299328
00000000: b306 8dbc 50b6 283d b583 23bd 9a6b 1b3d
00000010: bb66 173d fa8e 52bc ebb8 2bbd c77a 27bd
00000020: 5a0b db3b 9a51 9cbb e3fc a8bc 20d1 323d
00000030: 4b16 32bd e04e a53c d834 49bd 53ab 423c
00000040: 0090 343d c241 25bd 92c5 1d3d 33ea 733b
00000050: f8db 263d a75f e63b 3a0a fb3c c373 bd3c
00000060: b001 9dbc 9a5b 603a 0aba 8fbc 55bb 033d
00000070: 60ee 263c 60b3 f9bc a089 fb3c 2312 2fbd
00000080: f37f 0dbd fd60 ba3c 2378 98bc df45 2cbd
00000090: 63d2 ccbc 0314 34bd 8d9c 83bc 8bc4 223d
000000a0: 38d7 163d da01 40bc 6d4a bfbc 57ba b43c
000000b0: 5338 183d e3b2 fe3c 60bc 213d 634d 39bd
000000c0: 18ff 023d c559 2d3d 7d55 103d ba8c e33c
000000d0: 571e c63c 0092 57ba 6090 463c 9ae0 183b
000000e0: 4810 313d dd9e be3c a24e 3a3d 87d4 3bbd
000000f0: d3bc 9f3c f554 22bd 4702 2dbc c077 9e3c
00000100: fa1d 84bc cd8d a03b 0751 31bd 30e8 24bd
00000110: 5386 23bd 00c4 5a3b bac4 46bd 2dc2 16bc
00000120: c79f 043c bbe6 22bd 52dc 403d 3393 1c3a
00000130: 9a3b cc3a ed52 db3c f853 27bd 6712 033d
00000140: cdad 33bd 3a4c bf3c b810 0c3d e3c7 a1bc
00000150: 50d0 0a3d 30af e43c 3ad1 bf3c 2d3c 3abc
00000160: 9d8a 3e3d fb32 023d d778 29bd 231f afbc
00000170: 801f a5bc 2ae7 85bc 4a58 c9bc 857c 45bd
00000180: 9309 d2bc 3d87 26bd 4846 21bd 0334 343d
00000190: 68ec 333d 834d ef3c 5adf 053c 8311 873c
000001a0: b368 9bbb 9db0 bcbc cd6f 6bbc ba94 17bc
000001b0: 10d8 353d 3ae9 153c 40ca e73c b21f 3ebd
000001c0: f051 42bd 474e e93c a022 383d a21f 403d
000001d0: 6706 da3a 77be fa3c f85c 2fbd b071 d73c

weight f4 [84, 120]
-0.06608878 0.030467808 -0.035808608 0.063605316 0.044658124 -0.036862884 0.052333716 -0.090413965
0.063599326 0.09107882 -0.051264554 -0.088043384 -0.0014588009 -0.029407406 0.045017436 0.038275562
-0.016317474 -0.017728947 0.035136748 0.077241376 0.059092507 -0.0835814 -0.059214324 -0.02553037
-0.021227367 0.064025454 -0.05163736 -0.051462002 -0.015266039 -0.065381676 0.043441106 -0.028893307
0.0128844 -0.083187796 0.05530119 -0.040813223 -0.055224676 -0.003473294 0.03755176 -0.06541291
-0.006107543 0.07242248 -0.08538428 -0.042199362 0.08751824 -0.0726235 -0.08202181 0.005378703
-0.022226416 -0.015704866 -0.060400993 -0.0003932308 -0.005744532 0.08625554 0.037056055 -0.060768563
0.053472914 -0.061796054 0.08393036 -0.011884385 -0.008215069 0.07767947 -0.08463246 -0.020251838
0.033002973 -0.042890497 -0.058447253 0.0882871 0.05295803 -0.041191403 -0.024662737 0.06954176
0.034043744 -0.03170216 0.04233253 -0.064795025 -0.003101708 0.07160875 -0.074044704 -0.08641786
-0.08885284 -0.06227213 -0.05946316 -0.04569205 0.089026384 0.029753974 0.059486587 -0.044117015
0.04352677 -0.079880245 -0.056252006 -0.054103475 -0.081354864 -0.038893938 -0.043742947 0.0677858
0.02133248 0.0785144 0.057215773 -0.078435205 0.08516576 -0.027756512 -0.008888071 0.031174926
0.08312261 0.066578366 0.066158846 0.0419882 0.0060057067 -0.040722147 -0.015159044 0.063564844
-0.063003145 0.018387334 0.026577156 0.069483496 -0.039620146 -0.03374371 0.08253804 -0.06172557
-0.060678717 0.064006776 -0.016442021 -0.028356843 0.010758179 -0.02206343 -0.0077996054 -0.036131375
0.014937394 0.051927403 -0.0773786 -0.03407664 0.07165363 0.06465379 -0.0009462133 0.005042049
-0.05820534 -0.03518686 -0.08547214 0.038994174 0.040209245 -0.014941138 -0.08355945 0.032927506
-0.07861233 -0.022156572 0.024159182 0.016298832 -0.05822482 0.07433862 -0.065239325 -0.035630453
0.0078102807 -0.021028636 -0.045850962 -0.06643323 -0.048495386 0.07411697 -0.011431008 0.041436274
-0.0037788572 0.033960275 -0.003460627 -0.036716342 0.00898475 -0.08039196 -0.056536186 -0.05846212
-0.043973815 0.09051298 0.06295409 0.047778144 -0.019096468 -0.05964682 0.08247973 0.042334706
-0.03578879 -0.045993455 0.04065047 -0.028428134 0.036915302 0.012306377 0.033092894 -0.029438257
-0.07706712 0.086417094 -0.012965092 -0.032917894 -0.033712737 0.041516054 -0.04619705 -0.051087726
-0.032226272 0.063191205 -0.042617936 -0.026879204 -0.031350262 -0.05959601 0.005580221 0.031455655
-0.069607764 0.054675873 0.08562928 -0.07617784 -0.011568886 -0.045821026 -0.021758074 -0.043037057
0.078490056 0.071157396 0.070566446 -0.009355759 0.06414088 -0.023763286 0.081143335 0.05315992
-0.048697982 -0.029881231 0.023677327 0.011578756 0.06924307 -0.07621605 0.027247591 0.085925594
-0.008643732 0.015303332 -0.037111837 0.09039589 0.030501967 -0.060335677 0.082007 -0.08709103
0.08056665 -0.087752245 -0.054210894 -0.07265377 0.008667836 -0.0085523315 -0.08590159 -0.08777175
-0.033446144 -0.04250957 -0.025599113 0.06569013 0.03895083 0.06689223 0.06720324 0.07296492
-0.0124976225 0.055447154 0.030100096 -0.032729045 0.07202964 0.06931053 0.07535668 0.050061703
00000000: 8e59 87bd a097 f93c 0cac 12bd 8143 823d
00000010: 70eb 363d 89fd 16bd e15b 563d f52a b9bd
00000020: 5d40 823d 8887 ba3d c8fa 51bd 1750 b4bd
00000030: 3c35 bfba cde7 f0bc 3464 383d d6c6 1c3d
00000040: 39ac 85bc 4c3c 91bc 8deb 0f3d ba30 9e3d
00000050: fc0a 723d ba2c abbd b88a 72bd 1125 d1bc
00000060: 04e5 adbc c71f 833d b281 53bd d2c9 52bd
00000070: 691e 7abc d4e6 85bd 4def 313d a8b1 ecbc
00000080: 1719 533c 5d5e aabd 8083 623d c42b 27bd
00000090: 4533 62bd 34a0 63bb e0cf 193d 34f7 85bd
000000a0: c921 c8bb 3d52 943d f4dd aebd 3dd9 2cbd
000000b0: c33c b33d a1bb 94bd 0dfb a7bd d53f b03b
000000c0: 2c14 b6bc 7ea7 80bc 0867 77bd 8b2a ceb9
000000d0: a13c bcbb bfa6 b03d 17c8 173d 75e8 78bd
000000e0: 6a06 5b3d dc1d 7dbd aee3 ab3d b9b6 42bc
000000f0: 7f98 06bc 6a16 9f3d c853 adbd 2fe7 a5bc
00000100: 202e 073d f2ad 2fbd 6366 6fbd decf b43d
00000110: 85ea 583d 51b8 28bd 8209 cabc e96b 8e3d
00000120: 7471 0b3d 20da 01bd e064 2d3d 41b3 84bd
00000130: 0646 4bbb 9ca7 923d c0a4 97bd d9fb b0bd
00000140: 7af8 b5bd 1011 7fbd a48f 73bd 9627 3bbd
00000150: 7753 b63d 9bbe f33c 35a8 733d 0bb4 34bd
00000160: 2049 323d 4198 a3bd 8168 66bd 9b9b 5dbd
00000170: 619d a6bd 404f 1fbd ce2b 33bd 48d3 8a3d
00000180: 74c1 ae3c 28cc a03d 165b 6a3d a3a2 a0bd
00000190: 636b ae3d a061 e3bc 469f 11bc 8f62 ff3c
000001a0: 303c aa3d 3d5a 883d 4a7e 873d d2fb 2b3d
000001b0: 85cb c43b 44cc 26bd a45d 78bc 492e 823d
000001c0: cb07 81bd 09a1 963c 56b8 d93c 5d4d 8e3d
000001d0: bc48 22bd d836 0abd b409 a93d f4d3 7cbd
000001e0: 3f8a 78bd fc15 833d 6bb1 86bc 9c4c e8bc
000001f0: 1343 303c 5ebe b4bc d593 ffbb 7efe 13bd
00000200: f9bb 743c d4b1 543d ac78 9ebd f293 0bbd
00000210: 23bf 923d 3569 843d 4d0b 78ba c637 a53b
00000220: b968 6ebd 1920 10bd 040c afbd 5bb8 1f3d
00000230: 73b2 243d adcb 74bc 3821 abbd fede 063d
00000240: 80ff a0bd b381 b5bc 7ae9 c53c 2185 853c
00000250: 267d 6ebd d93e 983d 329c 85bd 3df1 11bd
00000260: 62ed ff3b 3f44 acbc 38ce 3bbd 250e 88bd
00000270: 19a3 46bd a3ca 973d 1f49 3bbc 15b9 293d
00000280: b4a6 77bb ee19 0b3d b0cb 62bb e063 16bd
00000290: c634 133c 8aa4 a4bd 7d92 67bd fa75 6fbd
000002a0: e31d 34bd df5e b93d 13ee 803d 04b3 433d
000002b0: 3270 9cbc 3950 74bd 22eb a83d 2867 2d3d
000002c0: 4497 12bd a263 3cbd 1b81 263d 1ee2 e8bc
000002d0: 8034 173d b0a0 493c 6a8c 073d 8028 f1bc
000002e0: 5ed5 9dbd 72fb b03d 8a6b 54bc ead4 06bd
000002f0: 5e16 0abd bd0c 2a3d 1e39 3dbd 5d41 51bd
00000300: b2ff 03bd 646a 813d 2590 2ebd c731 dcbc
00000310: 2269 00bd f21a 74bd 49da b63b a5d7 003d
00000320: 848e 8ebd cff3 5f3d 675e af3d 2103 9cbd
00000330: 6d8b 3dbc d4ae 3bbd fd3d b2bc a047 30bd
00000340: 65bf a03d f8ba 913d 2485 903d e648 19bc
00000350: 4b5c 833d 39ab c2bc 7a2e a63d 37be 593d
00000360: 8977 47bd 7cc9 f4bc f4f6 c13c d3b4 3d3c
00000370: 50cf 8d3d 2917 9cbd 5736 df3c c2f9 af3d
00000380: 719e 0dbc d4ba 7a3c 9502 18bd 7b21 b93d
00000390: 43df f93c 8b22 77bd 49f3 a73d c85c b2bd
000003a0: 2100 a53d 73b7 b3bd 3e0c 5ebd 80cb 94bd
000003b0: 8a03 0e3c 141f 0cbc 2ced afbd adc1 b3bd
000003c0: d3fe 08bd 841e 2ebd 3bb5 d1bc 8c88 863d
000003d0: e88a 1f3d cbfe 883d daa1 893d a26e 953d
000003e0: d4c2 4cbc 8e1c 633d 7a94 f63c e40e 06bd
000003f0: 4784 933d aef2 8d3d 9a54 9a3d 800d 4d3d

bias f4 [84]
-0.02462737 0.008433955 -0.041788578 -0.04747649 0.06901836 0.074268356 0.056105584 0.08116516
-0.048079565 0.08396019 0.022426376 0.020148816 -0.08696392 0.039407287 -0.055279728 -0.06272625
-0.05601126 -0.040554214 0.061579954 0.08846791 0.00038094472 -0.022024103 0.085075416 -0.015256474
0.061298475 0.007951729 -0.04838022 0.035049416 0.038774256 -0.07726161 -0.075372346 0.05160013
-0.039506815 -0.060344163 -0.05564842 0.0068724793 0.07733684 0.055388313 0.02518046 -0.028876929
-0.07761364 -0.012069993 0.038718242 0.015503175 0.031720422 0.084349625 -0.04660015 -0.013666335
-0.06759065 0.046466768 -0.01561549 0.089288466 0.08186316 0.00040470072 0.019457737 0.07354505
-6.527185e-05 0.035885207 0.06361722 0.034770004 0.08031928 -0.054906238 -0.035130575 0.04906774
-0.04845736 0.06352823 0.025876665 -0.023614394 -0.052395318 -0.08083184 -0.030510206 0.04348287
-0.048536293 -0.08323339 0.06363158 0.06726625 0.039244108 0.051664174 0.06470929 -0.07445823
-0.08337548 0.015441722 -0.02523915 -0.040904056
00000000: 57bf c9bc 922e 0a3c 802a 2bbd b576 42bd
00000010: 7f59 8d3d 021a 983d f8ce 653d eb39 a63d
00000020: 14ef 44bd 52f3 ab3d 85b7 b73c 210f a53c
00000030: 241a b2bd 8969 213d ff6c 62bd 9f76 80bd
00000040: 106c 65bd 2d1c 26bd 433b 7c3d aa2e b53d
00000050: 89b9 c739 e46b b4bc 053c ae3d 4af6 79bc
00000060: 1c14 7b3d f847 023c 562a 46bd fa8f 0f3d
00000070: c1d1 1e3d 563b 9ebd d15c 9abd a85a 533d
00000080: e6d1 21bd 712b 77bd 99ef 63bd 8932 e13b
00000090: c762 9e3d dbde 623d 4147 ce3c 4f8f ecbc
000000a0: e6f3 9ebd 38c1 45bc 0597 1e3d 0701 7e3c
000000b0: 46ed 013d 7fbf ac3d cddf 3ebd c3e8 5fbc
000000c0: f76c 8abd f053 3e3d 1dd8 7fbc dfdc b63d
000000d0: dfa7 a73d 032e d439 d565 9f3c ca9e 963d
000000e0: 8fe2 88b8 5efc 123d bf49 823d fe6a 0e3d
000000f0: 6f7e a43d 5de5 60bd 14e5 0fbd 41fb 483d
00000100: 3a7b 46bd 171b 823d 4dfb d33c f972 c1bc
00000110: 799c 56bd 2a8b a5bd 8af0 f9bc 181b 323d
00000120: fecd 46bd 4476 aabd 4651 823d e3c2 893d
00000130: 6ebe 203d d09d 533d 4e86 843d 8e7d 98bd
00000140: c3c0 aabd 47ff 7c3c 55c2 cebc 038b 27bd

weight f4 [10, 84]
-0.028446535 -0.06487057 0.049663227 -0.016526088 0.061636403 0.068465546 -0.013120609 -0.049260993
-0.09764352 0.07762236 0.049740564 0.08440058 0.09226131 0.026321108 0.07877493 0.020198599
0.06311896 -0.015392455 0.07538727 -0.0056717712 0.046283867 0.037510972 0.018543119 -0.06415101
-0.10489015 0.009555667 -0.10631955 0.06385819 0.09393579 0.045568556 0.029911738 -0.047057666
0.10751379 0.10476253 0.08022155 0.0025662936 0.0340306 -0.038706288 -0.032470983 0.08607143
-0.052648496 0.0065673157 -0.024932643 -0.06321115 0.066243336 -0.055580165 0.030824179 0.07508272
-0.004611691 -0.008261178 -0.004521255 -0.057241626 0.0750717 0.070919305 0.089021936 -0.043080617
0.025813386 -0.10571537 -0.06198604 0.09721686 1.4879779e-05 -0.084149495 0.038543586 -0.06222158
-0.0061649503 0.053687427 0.059979975 0.06566176 0.08913382 -0.062308595 -0.06361044 -0.08494342
-0.07318616 -0.0242251 0.04426711 -0.108433455 0.028251356 0.04933928 -0.030343525 0.0016403266
-0.08921702 0.06476605 0.05675776 0.029057594 -0.013831184 -0.08677648 -0.042746395 0.0056152567
0.060307823 0.093548015 0.026040576 0.0761018 -0.009748623 -0.08387165 -0.034392893 -0.052497655
0.0020747406 -0.030485481 -0.004644715 -0.016755255 0.012478672 -0.0839718 0.05598188 0.0027721783
-0.018693738 -0.001493909 0.013284964 -0.08159262 -0.05831305 0.07610842 -0.0977756 0.0077531454
0.062091395 -0.07011581 0.09059669 -0.091584876 -0.042197518 0.090233535 0.06478269 0.037805293
0.010734707 -0.09362568 -0.0145947095 -0.027980333 0.06410354 0.063976824 -0.028093712 -0.034066267
0.089627996 -0.07278372 0.06238739 0.073396906 0.051445704 -0.10820407 0.106191784 0.0524013
-0.0011096752 -0.06436431 0.05815279 0.09560327 -0.048102032 -0.08250693 -0.105642244 0.030202739
0.08282192 -0.088644944 -0.0736931 -0.010745516 0.10231491 0.07037328 -0.04801832 -0.08005623
0.08837858 -0.08645064 -0.003395048 0.047578108 0.063874 0.009627542 0.017318191 0.09682014
-0.026522478 0.083730705 -0.029602215 0.059698794 0.10117476 0.104640946 0.0029933979 0.071472056
0.009721881 -0.07018073 0.01615386 0.06798748 -0.072298445 0.078517266 0.017225971 0.028538154
0.101199105 0.08182086 -0.07709761 0.02992706 0.104467355 0.080273025 0.012447716 0.0885623
0.075687386 -0.00047260209 0.05755789 0.056636445 -0.0116687 0.058384158 0.059399895 0.08648743
0.05388802 -0.091934584 0.022185698 0.07143842 -0.01724067 -0.09146391 -0.07123817 -0.064370625
-0.061056767 0.08009266 -0.048566353 -0.04653254 0.033692125 -0.02554507 -0.018999046 -0.041980308
-0.052152846 -0.0014560983 0.106119126 -0.09132258 -0.044173773 -0.057122447 -0.05585332 -0.025815597
0.016435029 0.013113612 -0.00062283064 -0.06656187 -0.04160143 0.053452604 -0.0059248577 0.03063433
0.07904058 0.032677073 -0.0014329331 -0.017525427 -0.087388605 0.013375387 -0.0665989 0.06531409
0.013205414 -0.044358794 0.05466944 0.011351476 -0.107914805 0.07034494 -0.00064524135 -0.011647199
0.018657617 0.055125628 0.011771284 -0.038657926 -0.024141753 0.00018858559 0.09059383 -0.092228875
-0.0044574696 -0.09441056 -0.016963547 -0.038973145 0.034169853 0.04431223 0.022661904 0.070417814
00000000: b508 e9bc ddda 84bd ab6b 4b3d b861 87bc
00000010: 7476 7c3d aa37 8c3d d3f7 56bc e5c5 49bd
00000020: 53f9 c7bd 79f8 9e3d c3bc 4b3d 36da ac3d
00000030: 7ff3 bc3d 5d9f d73c c054 a13d 8877 a53c
00000040: 8344 813d a330 7cbc a464 9a3d 44da b9bb
00000050: 2794 3d3d 1ba5 193d bde7 973c 9b61 83bd
00000060: a6d0 d6bd 5f8f 1c3c 10be d9bd 15c8 823d
00000070: 6861 c03d 18a6 3a3d 7609 f53c 8abf 40bd
00000080: 3130 dc3d bd8d d63d 324b a43d 432f 283b
00000090: ac63 0b3d 7c8a 1ebd 4b00 05bd 3846 b03d
000000a0: f3a5 57bd a332 d73b 8b3f ccbc d974 81bd
000000b0: 96aa 873d 07a8 63bd fd82 fc3c f8c4 993d
000000c0: ab1d 97bb e459 07bc 0927 94bb 3276 6abd
000000d0: 31bf 993d 243e 913d 2251 b63d 4d75 30bd
000000e0: 9876 d33c 4d81 d8bd 13e5 7dbd a219 c73d
000000f0: 2aa4 7937 9256 acbd e1df 1d3d 0edc 7ebd
00000100: 5a03 cabb 59e7 5b3d 90ad 753d ac79 863d
00000110: cb8b b63d 4c37 7fbd 3146 82bd d1f6 adbd
00000120: a0e2 95bd b873 c6bc 6e51 353d 5c12 debd
00000130: 636f e73c fc17 4a3d fc92 f8bc 3a00 d73a
00000140: 6ab7 b6bd 10a4 843d d37a 683d 310a ee3c
00000150: 319c 62bc deb7 b1bd d816 2fbd 3000 b83b
00000160: 5605 773d 1a96 bf3d 0c53 d53c 43db 9b3d
00000170: b0b8 1fbc e6c4 abbd 90df 0cbd c807 57bd
00000180: 5ff8 073b b0bc f9bc b232 98bb 5142 89bc
00000190: 5873 4c3c 68f9 abbd 414d 653d 6fad 353b
000001a0: 9c23 99bc 45cf c3ba 2da9 593c 081a a7bd
000001b0: aad9 6ebd bbde 9b3d 933e c8bd 190e fe3b
000001c0: 8c53 7e3d e198 8fbd c28a b93d da90 bbbd
000001d0: 4ed7 2cbd 5ccc b83d c9ac 843d b9d9 1a3d
000001e0: a0e0 2f3c d2be bfbd a61e 6fbc 0337 e5bc
000001f0: b748 833d 4806 833d c924 e6bc 1289 0bbd
00000200: e28e b73d a20f 95bd eb89 7f3d 1e51 963d
00000210: bbb8 523d 189a ddbd 147b d93d bfa2 563d
00000220: 8572 91ba 6fd1 83bd 9f31 6e3d a6cb c33d
00000230: a306 45bd 65f9 a8bd f65a d8bd bc6b f73c
00000240: 8a9e a93d 7b8b b5bd 68ec 96bd f60d 30bc
00000250: 7b8a d13d de1f 903d dcae 44bd 85f4 a3bd
00000260: d4ff b43d 080d b1bd 747f 5ebb 43e1 423d
00000270: 5fd0 823d d7bc 1d3c e1de 8d3c a349 c63d
00000280: ab45 d9bc 017b ab3d 5880 f2bc b986 743d
00000290: b634 cf3d fe4d d63d e22c 443b f15f 923d
000002a0: 8648 1f3c eaba 8fbd 1a55 843c 053d 8b3d
000002b0: 3511 94bd a9cd a03d 7b1d 8d3c d9c8 e93c
000002c0: 7a41 cf3d b291 a73d 5ae5 9dbd 9829 f53c
000002d0: fbf2 d53d 2f66 a43d 81f1 4b3c 2760 b53d
000002e0: fd01 9b3d 94c7 f7b9 d2c1 6b3d 9efb 673d
000002f0: 132e 3fbc 3a24 6f3d 4e4d 733d 5220 b13d
00000300: afb9 5c3d 3348 bcbd c8be b53c 4e4e 923d
00000310: 4e3c 8dbc 6e51 bbbd 51e5 91bd bfd4 83bd
00000320: a916 7abd 9f07 a43d 83ed 46bd e898 3ebd
00000330: c100 0a3d e543 d1bc e3a3 9bbc 8bf3 2bbd
00000340: 399e 55bd 8dda beba fc54 d93d 5507 bbbd
00000350: 8fef 34bd 3af9 69bd 73c6 64bd 3b7b d3bc
00000360: c1a2 863c 7ada 563c 7545 23ba 9751 88bd
00000370: 4366 2abd 1ef1 5a3d 4f25 c2bb d9f4 fa3c
00000380: 07e0 a13d 65d8 053d 42d1 bbba 7c91 8fbc
00000390: ccf8 b2bd 7024 5b3c 0165 88bd 65c3 853d
000003a0: 855b 583c 91b1 35bd 10ed 5f3d 8bfb 393c
000003b0: 7002 ddbd 0211 903d 6a25 29ba e5d3 3ebc
000003c0: dcd7 983c 69cb 613d 58dc 403c c657 1ebd
000003d0: edc4 c5bc 0fbf 4539 4289 b93d 7ee2 bcbd
000003e0: f70f 92bb 535a c1bd 23f7 8abc 4ea2 1fbd
000003f0: b0f5 0b3d be80 353d 75a5 b93c 3737 903d

bias f4 [10]
0.06970366 -0.06366906 -0.09019892 -0.052450493 0.029757075 -0.07114114 -0.08474512 -0.051215485
0.055538308 -0.103100225
00000000: cbc0 8e3d ed64 82bd 36ba b8bd 54d6 56bd
00000010: 1cc5 f33c 72b2 91bd d98e adbd 54c7 51bd
00000020: 237c 633d 3626 d3bd
